checkpoints/radarfields_ep0004.pth (torch, 170357 bytes, 30 tensors)

exp_avg f4 [64, 63]
-0.00011576597 5.8622296e-05 9.713791e-06 -2.9065652e-05 -1.856547e-06 6.9607523e-07 -6.1665514e-07 9.159585e-07
5.0663252e-06 -9.16637e-06 4.06056e-05 -2.4488145e-05 6.8877554e-05 -1.5796209e-06 -7.005172e-05 -1.3186027e-05
-1.1446148e-05 2.4840676e-05 -1.4570223e-05 -2.4383953e-05 -4.7603025e-05 -3.4617093e-05 2.413581e-05 4.8398448e-05
4.737655e-05 5.1321345e-05 -3.7976013e-05 -6.195359e-05 1.9876761e-05 8.756903e-05 -3.326699e-05 8.623716e-06
-1.6065393e-05 -1.2687578e-05 6.8990253e-06 -4.9385126e-05 -1.7658647e-05 1.45191325e-05 -2.6525324e-05 2.7225237e-06
-1.7405902e-06 -3.5336336e-05 -1.2328846e-05 -6.578095e-05 -0.00012571368 -1.9546062e-05 3.033814e-05 6.999309e-05
0.0 0.0 0.0 0.0 0.0 0.0 0.0 0.0
0.0 0.0 0.0 0.0 0.0 0.0 0.0 -5.784634e-05
1.6882253e-05 7.592675e-06 1.9992099e-06 -2.44766e-06 4.1501858e-06 -9.139884e-06 -3.350793e-05 -4.44906e-06
4.5091283e-06 1.0083827e-05 -3.753954e-06 4.260457e-06 -1.7833929e-05 -2.7961509e-05 1.545558e-05 -2.3672276e-06
-9.498371e-07 -4.9357836e-06 6.6900225e-06 -1.8389084e-06 8.1979135e-07 -9.901299e-06 1.7261857e-05 -6.522377e-06
-9.0070025e-06 2.6323312e-06 -3.376768e-06 2.9207129e-06 -3.0681522e-06 -1.1472434e-05 -9.650458e-07 -4.119106e-06
7.70746e-06 1.4783668e-06 -2.1312953e-05 -3.8116884e-06 8.7720455e-06 -7.484852e-07 -3.3571534e-06 -1.7798477e-06
-1.0478463e-05 -5.380013e-06 -5.662911e-06 -2.1462762e-05 -7.507304e-07 4.2276088e-06 -6.594485e-06 0.0
0.0 0.0 0.0 0.0 0.0 0.0 0.0 0.0
0.0 0.0 0.0 0.0 0.0 0.0 -4.1069634e-05 3.515383e-07
-7.6720235e-06 2.5850435e-05 3.793258e-06 -1.9854099e-06 -1.2699694e-05 -2.8766719e-05 -1.8233446e-05 6.613415e-06
7.0833576e-06 1.4098585e-05 2.3063158e-05 -1.3810861e-05 -3.771631e-05 -2.8632164e-06 1.8529936e-05 7.93848e-06
-2.0977575e-06 -1.9790057e-05 9.679746e-07 1.0272385e-05 1.0012629e-05 2.6978553e-06 -6.7902033e-06 -1.4405762e-05
2.0746527e-06 2.1254966e-06 8.96235e-06 4.834251e-05 1.4802922e-05 4.735929e-06 5.596889e-06 -2.7866645e-06
7.0911433e-06 6.911934e-06 -5.0680983e-06 -8.348984e-06 7.3884476e-06 1.5916188e-06 -1.1981501e-05 -1.7562534e-05
-1.07027e-05 -2.6613484e-06 2.8253419e-06 1.07357e-07 1.3942349e-05 8.320486e-06 0.0 0.0
0.0 0.0 0.0 0.0 0.0 0.0 0.0 0.0
0.0 0.0 0.0 0.0 0.0 -2.319402e-05 3.6395835e-05 -8.35223e-06
-1.9067567e-05 -2.4153343e-07 -3.9258016e-06 -2.5455456e-05 -3.5039157e-05 -8.232379e-06 -1.2387151e-05 2.2562663e-05
6.0857087e-06 1.2702989e-06 1.8770162e-06 -2.3200608e-05 -1.04517985e-05 7.779186e-06 -2.6687035e-06 2.014021e-06
-8.185275e-06 1.651871e-05 7.067127e-06 9.2415985e-06 7.108351e-06 -6.1737824e-06 7.799639e-06 1.7738348e-06
-1.7343359e-06 -3.6265758e-06 4.0763363e-05 1.5119537e-05 1.7736318e-06 -2.1057753e-05 -5.288084e-07 3.4237783e-06
5.1411344e-06 -2.3202408e-06 -7.149633e-06 -1.3048626e-05 -2.3903501e-06 -1.3328032e-07 -1.3056669e-05 4.977793e-06
-1.9461984e-06 -2.5668842e-06 1.428181e-06 -4.7248436e-06 -4.6958457e-06 0.0 0.0 0.0
0.0 0.0 0.0 0.0 0.0 0.0 0.0 0.0
0.0 0.0 0.0 0.0 -1.2238887e-05 0.00010809902 3.4762958e-05 1.6566595e-05
00000000: 62c7 f2b8 36e1 7538 6af8 2237 03d2 f3b7
00000010: 782e f9b5 edd9 3a35 3888 25b5 30e0 7535
00000020: 67ff a936 42c9 19b7 ee4f 2a38 e46b cdb7
00000030: 5b72 9038 5c03 d4b5 bbe8 92b8 8e39 5db7
00000040: d508 40b7 f260 d037 a272 74b7 248c ccb7
00000050: 5ca9 47b8 d231 11b8 4277 ca37 70ff 4a38
00000060: 2fb6 4638 e041 5738 6f48 1fb8 15ed 81b8
00000070: 05bd a637 44a5 b738 2988 0bb8 94ae 1037
00000080: 2bc4 86b7 bcdc 54b7 2d7e e736 e022 4fb8
00000090: a821 94b7 3397 7337 b382 deb7 9ab4 3636
000000a0: 399e e9b5 1a36 14b8 fed7 4eb7 e1f3 89b8
000000b0: 02d2 03b9 d9f6 a3b7 a97e fe37 41c9 9238
000000c0: 0000 0000 0000 0000 0000 0000 0000 0000
000000d0: 0000 0000 0000 0000 0000 0000 0000 0000
000000e0: 0000 0000 0000 0000 0000 0000 0000 0000
000000f0: 0000 0000 0000 0000 0000 0000 09a0 72b8
00000100: 5d9e 8d37 95c4 fe36 2a2a 0636 7b42 24b6
00000110: d341 8b36 8157 19b7 de8a 0cb8 2249 95b6
00000120: 1e4d 9736 b52d 2937 70ec 7bb6 0cf5 8e36
00000130: 129a 95b7 e28e eab7 9ba6 8137 a9dc 1eb6
00000140: 4ff8 7eb5 0f9e a5b6 db7a e036 69d0 f6b5
00000150: a20f 5c35 c11d 26b7 8ecd 9037 cbda dab6
00000160: c81c 17b7 1ba7 3036 6f9c 62b6 7701 4436
00000170: 74e6 4db6 bb79 40b7 b986 81b5 da36 8ab6
00000180: 4a4f 0137 4c6c c635 38c9 b2b7 4fcc 7fb6
00000190: a62b 1337 83eb 48b5 754b 61b6 1ae3 eeb5
000001a0: a8cc 2fb7 f685 b4b6 0904 beb6 ee0a b4b7
000001b0: cd85 49b5 e2da 8d36 3246 ddb6 0000 0000
000001c0: 0000 0000 0000 0000 0000 0000 0000 0000
000001d0: 0000 0000 0000 0000 0000 0000 0000 0000
000001e0: 0000 0000 0000 0000 0000 0000 0000 0000
000001f0: 0000 0000 0000 0000 2f42 2cb8 0ebb bc34
00000200: 17b7 00b7 63d9 d837 ad8f 7e36 153d 05b6
00000210: c510 55b7 0f50 f1b7 07f4 98b7 cde8 dd36
00000220: 94ad ed36 f688 6c37 c177 c137 32b5 67b7
00000230: 9431 1eb8 af25 40b6 bc70 9b37 832f 0537
00000240: 33c7 0cb6 d302 a6b7 5beb 8135 8f57 2c37
00000250: eafb 2737 cd0c 3536 67d7 e3b6 47b0 71b7
00000260: 433a 0b36 c1a3 0e36 005d 1637 60c3 4a38
00000270: 115a 7837 52e9 9e36 e9cc bb36 8802 3bb6
00000280: 75f0 ed36 10ed e736 a20e aab6 9d12 0cb7
00000290: 48ea f736 9b9f d535 2804 49b7 4153 93b7
000002a0: bf8f 33b7 9e99 32b6 019b 3d36 238c e633
000002b0: efe9 6937 3798 0b37 0000 0000 0000 0000
000002c0: 0000 0000 0000 0000 0000 0000 0000 0000
000002d0: 0000 0000 0000 0000 0000 0000 0000 0000
000002e0: 0000 0000 0000 0000 0000 0000 0000 0000
000002f0: 0000 0000 c790 c2b7 bba7 1838 8e20 0cb7
00000300: 4af3 9fb7 1aac 81b4 61ba 83b6 2d89 d5b7
00000310: 02f7 12b8 cc1d 0ab7 69d2 4fb7 f344 bd37
00000320: d733 cc36 237f aa35 c9ed fb35 ed9e c2b7
00000330: 225a 2fb7 5983 0237 fa17 33b6 9e28 0736
00000340: 7d53 09b7 a991 8a37 2922 ed36 5d0c 1b37
00000350: 4584 ee36 6328 cfb6 32db 0237 8014 ee35
00000360: 54c7 e8b5 1960 73b6 54f9 2a38 eba9 7d37
00000370: 860d ee35 2ea5 b0b7 70f3 0db5 10c4 6536
00000380: 0282 ac36 6fb5 1bb6 e1e6 efb6 6ceb 5ab7
00000390: e769 20b6 d11b 0fb4 f70d 5bb7 eb06 a736
000003a0: 6f9b 02b6 bc42 2cb6 edaf bf35 198a 9eb6
000003b0: 0291 9db6 0000 0000 0000 0000 0000 0000
000003c0: 0000 0000 0000 0000 0000 0000 0000 0000
000003d0: 0000 0000 0000 0000 0000 0000 0000 0000
000003e0: 0000 0000 0000 0000 0000 0000 0000 0000
000003f0: 9f55 4db7 38b3 e238 71ce 1138 7ef8 8a37

exp_avg_sq f4 [64, 63]
2.1305164e-07 2.463667e-07 1.1260747e-07 3.960403e-08 3.5971777e-08 5.690898e-08 2.8229248e-08 4.4320178e-08
2.3022208e-08 2.3748711e-08 1.8495934e-08 2.3096966e-08 1.7439035e-08 1.7760408e-08 5.9430484e-08 1.16623315e-08
9.176391e-09 2.73816e-08 8.877677e-09 1.0805235e-08 4.814494e-08 1.2906609e-08 8.699993e-09 4.58365e-08
6.9375434e-09 9.490017e-09 3.572094e-08 7.174726e-09 4.1507597e-09 3.8696335e-08 6.0648206e-09 6.1808954e-09
4.4981682e-08 2.462075e-09 2.048854e-09 5.0742447e-08 2.6661524e-09 2.1538935e-09 3.5589167e-08 9.978611e-10
2.6592568e-09 3.6661714e-08 6.424788e-10 2.8791864e-09 3.173571e-08 7.193629e-10 9.343877e-10 1.9826054e-08
0.0 0.0 0.0 0.0 0.0 0.0 0.0 0.0
0.0 0.0 0.0 0.0 0.0 0.0 0.0 1.468215e-08
2.133338e-08 3.7706243e-09 1.602677e-09 1.8433219e-09 2.248772e-09 1.8572277e-09 3.2273795e-09 1.533269e-09
1.1229784e-09 1.3225397e-09 1.8973236e-09 1.3880272e-09 1.3425392e-09 2.3937623e-09 8.3811474e-10 6.220545e-10
1.6889459e-09 9.499209e-10 1.1266478e-09 1.6704282e-09 5.2306987e-10 5.1335974e-10 2.3878832e-09 5.9398003e-10
8.225593e-10 1.2429546e-09 4.0586892e-10 2.4792401e-10 1.2803923e-09 6.11839e-10 5.153311e-10 2.2313016e-09
2.801966e-10 1.1642917e-10 1.4596574e-09 1.9740037e-10 2.0192069e-10 1.0094601e-09 6.051498e-11 1.3971473e-10
1.3459203e-09 4.373536e-11 1.0627983e-10 1.2783375e-09 1.1731806e-11 3.325741e-11 6.462395e-10 0.0
0.0 0.0 0.0 0.0 0.0 0.0 0.0 0.0
0.0 0.0 0.0 0.0 0.0 0.0 5.3099026e-08 5.4077095e-08
1.0150279e-08 5.6249223e-09 5.0505755e-09 6.101844e-09 5.834097e-09 9.524296e-09 8.456265e-09 4.673012e-09
3.5028451e-09 6.075219e-09 4.654292e-09 3.1082699e-09 5.952374e-09 2.165563e-09 1.7936952e-09 5.081826e-09
2.105137e-09 2.0550324e-09 4.8299453e-09 1.2799353e-09 1.5154841e-09 5.0136104e-09 1.2349264e-09 1.3740545e-09
5.3369504e-09 1.1781246e-09 9.801403e-10 5.993714e-09 1.0296143e-09 8.3309887e-10 4.9908335e-09 4.7693716e-10
2.2689357e-10 3.8311123e-09 4.2885825e-10 4.1100834e-10 4.3495256e-09 1.0643305e-10 4.676332e-10 3.7688315e-09
2.731894e-10 1.7836213e-10 3.4817496e-09 8.4644985e-11 2.840319e-10 2.3019056e-09 0.0 0.0
0.0 0.0 0.0 0.0 0.0 0.0 0.0 0.0
0.0 0.0 0.0 0.0 0.0 3.5823753e-08 3.9472244e-08 7.479399e-09
3.120049e-09 6.3656467e-09 4.1223047e-09 4.5253583e-09 4.5446216e-09 2.6334046e-09 2.1482214e-09 2.5555655e-09
3.0783591e-09 3.4041794e-09 2.4390592e-09 3.6581191e-09 1.5138365e-09 1.4234354e-09 2.5972529e-09 1.6474548e-09
1.557175e-09 3.3301255e-09 1.130799e-09 8.177912e-10 2.524558e-09 7.0111983e-10 7.758357e-10 4.8245976e-09
4.0542167e-10 6.0483707e-10 3.5026082e-09 9.273399e-10 4.5940546e-10 3.949077e-09 2.4588362e-10 1.8315323e-10
2.5328322e-09 2.9401398e-10 3.1385536e-10 2.7680134e-09 8.4714444e-11 2.6830302e-10 2.8370781e-09 1.7755616e-10
9.158062e-11 2.3676994e-09 7.5840674e-11 8.148512e-11 1.3186566e-09 0.0 0.0 0.0
0.0 0.0 0.0 0.0 0.0 0.0 0.0 0.0
0.0 0.0 0.0 0.0 7.0114794e-08 8.864476e-08 1.9873275e-08 5.026683e-09
00000000: 30c3 6434 6244 8434 9cd2 f133 1719 2a33
00000010: 637f 1a33 166c 7433 c67c f232 8d5a 3e33
00000020: 5fc2 c532 f8ff cb32 fde0 9e32 c466 c632
00000030: d8cc 9532 8d8f 9832 8240 7f33 7a5b 4832
00000040: 32a6 1d32 c634 eb32 7084 1832 eda1 3932
00000050: ecc7 4e33 debb 5d32 f976 1532 c4dd 4433
00000060: 475f ee31 8909 2332 976b 1933 8f85 f631
00000070: 789e 8e31 1233 2633 ba62 d031 bb5f d431
00000080: e231 4133 4831 2931 d2cb 0c31 e9ef 5933
00000090: 7337 3731 b203 1431 b4da 1833 1e25 8930
000000a0: 24be 3631 fb75 1d33 6d9a 3030 2fdb 4531
000000b0: c84d 0833 aabc 4530 d86b 8030 f44d aa32
000000c0: 0000 0000 0000 0000 0000 0000 0000 0000
000000d0: 0000 0000 0000 0000 0000 0000 0000 0000
000000e0: 0000 0000 0000 0000 0000 0000 0000 0000
000000f0: 0000 0000 0000 0000 0000 0000 c73c 7c32
00000100: 9940 b732 c38e 8131 2f45 dc30 2058 fd30
00000110: d188 1a31 6441 ff30 a9c8 5d31 1bbb d230
00000120: 4a57 9a30 bbc4 b530 1262 0231 dec4 be30
00000130: 6684 b830 837f 2431 1561 6630 32fd 2a30
00000140: 8020 e830 5f8e 8230 65d8 9a30 f894 e530
00000150: c5c7 0f30 7b1c 0d30 1618 2431 a145 2330
00000160: 771a 6230 94d4 aa30 f920 df2f 344c 882f
00000170: cdf9 af30 582e 2830 34a7 0d30 7955 1931
00000180: 2a0a 9a2f e603 002f 219d c830 440b 592f
00000190: 9f03 5e2f 38bd 8a30 e812 852e 339e 192f
000001a0: 5cfb b830 a359 402e 3ab6 e92e 81b1 af30
000001b0: 5b63 4e2d 8444 122e 10a3 3130 0000 0000
000001c0: 0000 0000 0000 0000 0000 0000 0000 0000
000001d0: 0000 0000 0000 0000 0000 0000 0000 0000
000001e0: 0000 0000 0000 0000 0000 0000 0000 0000
000001f0: 0000 0000 0000 0000 ff0e 6433 6542 6833
00000200: 6661 2e32 5745 c131 5589 ad31 63a8 d131
00000210: 4375 c831 4ca0 2332 0c47 1132 4090 a031
00000220: b4b6 7031 31be d031 96eb 9f31 4399 5531
00000230: a385 cc31 fdd0 1431 0a86 f630 379c ae31
00000240: f6a9 1031 8338 0d31 a6f4 a531 b8e9 af30
00000250: 5b49 d030 2f44 ac31 1cba a930 3fd9 bc30
00000260: 5060 b731 93eb a130 9fb5 8630 44f1 cd31
00000270: 5582 8d30 1f00 6530 d67b ab31 7819 0330
00000280: dd78 792f d2a2 8331 6fc4 eb2f 48f4 e12f
00000290: d572 9531 7b0c ea2e c38a 0030 fe7e 8131
000002a0: fd2f 962f 7a1c 442f 9643 6f31 e422 ba2e
000002b0: f025 9c2f 8d2f 1e31 0000 0000 0000 0000
000002c0: 0000 0000 0000 0000 0000 0000 0000 0000
000002d0: 0000 0000 0000 0000 0000 0000 0000 0000
000002e0: 0000 0000 0000 0000 0000 0000 0000 0000
000002f0: 0000 0000 a2dc 1933 3188 2933 bf7e 0032
00000300: 7c68 5631 d2b8 da31 2da4 8d31 797d 9b31
00000310: ea26 9c31 58f7 3431 e99f 1331 fc9d 2f31
00000320: 118b 5331 f5ee 6931 629c 2731 5062 7b31
00000330: 630f d030 aea2 c330 5b7b 3231 aa6c e230
00000340: 3904 d630 30d8 6431 746a 9b30 f1ca 6030
00000350: 7e7c 2d31 ecb8 4030 9542 5530 9cc5 a531
00000360: 07e2 de2f a041 2630 89b2 7031 bfe7 7e30
00000370: 928f fc2f 73b0 8731 0b2d 872f 0d61 492f
00000380: 0e0e 2e31 caa2 a12f 378b ac2f 6837 3e31
00000390: fe49 ba2e 4b80 932f 68f6 4231 9e39 432f
000003a0: 4e63 c92e 02b5 2231 81c6 a62e 0b30 b32e
000003b0: 1b3c b530 0000 0000 0000 0000 0000 0000
000003c0: 0000 0000 0000 0000 0000 0000 0000 0000
000003d0: 0000 0000 0000 0000 0000 0000 0000 0000
000003e0: 0000 0000 0000 0000 0000 0000 0000 0000
000003f0: 0492 9633 f95c be33 cbb5 aa32 2cb7 ac31

exp_avg f4 [64]
4.821787e-05 1.060882e-05 -3.0656508e-06 3.394383e-06 -1.313818e-05 2.3553948e-06 7.883245e-06 1.2641013e-05
7.2955205e-05 1.9264415e-05 1.7087628e-05 -4.0015307e-06 -6.0724574e-06 -1.8851035e-05 1.7162572e-05 -2.2633756e-05
-3.7104317e-06 2.655789e-06 4.2908257e-05 1.4965861e-05 -1.1016657e-05 -1.0846073e-05 1.6794762e-06 -9.568236e-06
1.8382509e-05 2.3804632e-05 8.386742e-06 1.2102861e-06 -6.662408e-06 -1.2471871e-05 1.9862015e-05 -2.7545957e-05
4.799909e-05 1.3960139e-05 1.1720865e-06 7.0923394e-05 3.5488188e-06 -1.0654049e-05 1.45105405e-05 -7.7099384e-07
-3.6372157e-06 2.1992373e-06 -1.2434027e-05 3.3712245e-06 1.5752326e-05 -8.781481e-05 -3.8509293e-06 -5.257427e-06
-7.960816e-05 -1.7401588e-05 3.5743196e-06 2.1530193e-06 -6.1149462e-06 4.0862113e-05 1.1352787e-05 -1.1808351e-05
2.448527e-06 -5.6732933e-05 -2.4680168e-05 -7.1613435e-06 3.419635e-05 1.102815e-05 1.5834607e-05 8.264307e-06
00000000: 8b3d 4a38 89fc 3137 7bbb 4db6 0ecb 6336
00000010: 0e6c 5cb7 6011 1e36 4842 0437 bd14 5437
00000020: 87ff 9838 049a a137 6757 8f37 e344 86b6
00000030: 03c2 cbb6 4a22 9eb7 58f8 8f37 9fdd bdb7
00000040: bb00 79b6 1c3a 3236 64f8 3338 e215 7b37
00000050: 2ed4 38b7 87f7 35b7 5d6a e135 4387 20b7
00000060: 2334 9a37 0fb0 c737 c8b4 0c37 1d71 a235
00000070: a68d dfb6 473e 51b7 5a9d a637 7e12 e7b7
00000080: a152 4938 5736 6a37 9650 9d35 b5bc 9438
00000090: 3e28 6e36 cbbe 32b7 4c72 7337 4bf6 4eb5
000000a0: e416 74b6 9c96 1336 bd9b 50b7 323d 6236
000000b0: dd23 8437 3829 b8b8 3b37 81b6 f468 b0b6
000000c0: 4ef3 a6b8 a0f9 91b7 58de 6f36 977c 1036
000000d0: fd2e cdb6 5c63 2b38 d977 3e37 7b1c 46b7
000000e0: 6051 2436 86f4 6db8 4208 cfb7 794b f0b6
000000f0: 0d6e 0f38 8b05 3937 8fd4 8437 eea6 0a37

exp_avg_sq f4 [64]
1.0379541e-07 4.216548e-09 1.6367066e-08 7.454152e-09 1.7718296e-08 4.4019444e-10 1.7847837e-08 2.1663966e-09
1.2542445e-07 4.5313793e-09 2.3850518e-08 1.4058965e-09 4.1050305e-09 2.2048802e-08 2.0599813e-08 8.212599e-09
1.0356359e-08 3.9609787e-09 3.9948315e-08 7.1613213e-09 1.0683028e-08 4.54265e-09 1.0885705e-08 9.58645e-09
5.279663e-09 8.001343e-08 5.052387e-09 8.318047e-09 9.528409e-09 2.5003125e-08 2.966702e-08 6.701877e-08
5.9394015e-08 3.6306456e-09 6.162393e-09 1.01495e-07 1.0957736e-08 5.523614e-09 3.3545227e-08 1.5314365e-08
3.1237807e-08 6.018393e-09 2.4469502e-08 1.7533704e-09 1.8695458e-08 8.095157e-08 6.521585e-09 3.5920997e-09
1.12021816e-07 1.2882017e-08 8.412138e-09 6.021044e-10 7.985258e-09 2.6041894e-08 1.3754761e-08 1.2040115e-08
1.2378793e-08 5.5135708e-08 2.982132e-08 3.4887062e-09 7.0221994e-08 3.3617653e-08 7.127605e-09 1.0003353e-08
00000000: 21e6 de33 26e1 9031 8f97 8c32 b50f 0032
00000010: f232 9832 dcff f12f cf4f 9932 a7df 1431
00000020: 69ac 0634 6fb2 9b31 d8df cc32 9639 c130
00000030: 3b0c 8d31 d465 bd32 78f3 b032 6417 0d32
00000040: c0eb 3132 2319 8831 a393 2b33 a60f f631
00000050: 7488 3732 9215 9c31 d603 3b32 a7b1 2432
00000060: 6868 b531 d9d3 ab33 4499 ad31 28e7 0e32
00000070: 63b2 2332 74c6 d632 78d6 fe32 f5eb 8f33
00000080: 6918 7f33 fe7e 7931 fbbc d331 77f5 d933
00000090: a240 3c32 39ca bd31 5e13 1033 a58c 8332
000000a0: 552a 0633 58ca ce31 0131 d232 3dfb f030
000000b0: bf97 a032 99d7 ad33 7814 e031 e3d8 7631
000000c0: a590 f033 b64f 5d32 f984 1032 5581 2530
000000d0: 892f 0932 bbb2 df32 144e 6c32 fcd8 4e32
000000e0: 82aa 5432 5ace 6c33 e314 0033 f8bd 6f31
000000f0: f3cc 9633 0063 1033 14e7 f431 36db 2b32

exp_avg f4 [32, 64]
-4.141388e-06 -2.6443388e-06 3.6025763e-06 -1.0925513e-06 -9.038099e-07 -3.4146868e-07 1.1631486e-06 -5.017624e-07
1.4856645e-06 -8.690264e-07 2.0767426e-07 -2.3271837e-06 3.9913352e-06 4.067326e-07 1.6610214e-06 -6.5877457e-06
-8.315757e-07 7.6877507e-07 -4.676751e-06 -1.5225867e-06 2.2946801e-06 -4.811715e-06 -1.7290439e-06 -4.4564863e-06
3.8783182e-07 -1.9617771e-06 -2.8970663e-07 -2.143576e-06 -5.097773e-06 -4.2777206e-06 -9.2762394e-07 -4.1370217e-06
-1.08196e-06 -1.9136407e-06 -1.5321193e-06 -1.7426313e-06 6.018972e-07 -5.4296256e-06 -2.270111e-06 2.0609123e-06
-1.5601448e-06 -2.861417e-06 -6.9401284e-07 -2.552548e-06 6.607276e-07 -3.4754437e-06 -1.5050227e-06 -6.504583e-06
3.0759759e-06 -5.0735216e-06 1.0617582e-06 -4.1330713e-06 1.851348e-06 -4.363945e-06 3.6634416e-09 6.255902e-07
-4.5934116e-06 -2.9662133e-06 -2.4300475e-06 5.34059e-07 -1.1578237e-05 -5.010778e-07 -4.001567e-06 8.5883676e-07
-3.216873e-05 -2.0428964e-05 2.6333955e-05 -9.072211e-06 -7.6216875e-06 -4.2473334e-06 7.1796785e-06 -4.071491e-06
1.0475221e-05 -7.906177e-06 -1.435092e-07 -1.9472742e-05 3.0185989e-05 2.2075028e-06 1.17104455e-05 -5.035405e-05
-6.400188e-06 4.842256e-06 -3.654274e-05 -1.1711756e-05 1.658238e-05 -3.7388167e-05 -1.4567501e-05 -3.4571658e-05
2.0442494e-06 -1.607729e-05 -3.638359e-06 -1.7335027e-05 -3.916896e-05 -3.381812e-05 -6.8700892e-06 -3.2260887e-05
-8.7995795e-06 -1.4565467e-05 -1.1960029e-05 -1.3804546e-05 3.5145683e-06 -4.144161e-05 -1.7910399e-05 1.5443093e-05
-1.3099777e-05 -2.247338e-05 -6.0585817e-06 -2.0277917e-05 3.6511692e-06 -2.6684631e-05 -1.244215e-05 -4.918697e-05
2.2134125e-05 -3.8888298e-05 7.720144e-06 -3.2730957e-05 1.2934737e-05 -3.3508622e-05 -3.645106e-07 4.5982015e-06
-3.4660778e-05 -2.3671017e-05 -1.9279945e-05 3.818125e-06 -8.8823566e-05 -5.977925e-06 -3.1392952e-05 5.9073277e-06
3.2017313e-05 2.0429146e-05 -2.6053202e-05 9.18524e-06 7.087108e-06 4.0361883e-06 -7.4697937e-06 4.246878e-06
-1.02692975e-05 8.004059e-06 3.9184908e-07 1.8806539e-05 -2.9769733e-05 -2.0320415e-06 -1.1874885e-05 4.9434042e-05
6.129527e-06 -4.933785e-06 3.6356127e-05 1.1691823e-05 -1.6461638e-05 3.6676414e-05 1.40075845e-05 3.4842666e-05
-1.9362878e-06 1.6342146e-05 3.3693439e-06 1.7732733e-05 3.8495018e-05 3.3461183e-05 6.786118e-06 3.1591957e-05
8.847451e-06 1.4461056e-05 1.2129823e-05 1.3722148e-05 -3.344694e-06 4.0768555e-05 1.7687518e-05 -1.5076551e-05
1.2673462e-05 2.2027836e-05 5.8006885e-06 2.0238014e-05 -3.451776e-06 2.6245594e-05 1.2349266e-05 4.8480728e-05
-2.1769545e-05 3.8345108e-05 -7.608619e-06 3.2407115e-05 -1.2800628e-05 3.3491368e-05 5.377988e-07 -4.778876e-06
3.4109e-05 2.3168599e-05 1.8859117e-05 -3.7278105e-06 8.86167e-05 5.5910054e-06 3.078023e-05 -5.8467363e-06
6.007886e-06 3.7995399e-06 -5.0017998e-06 1.6262342e-06 1.6727998e-06 9.207805e-07 -1.1793743e-06 6.8023377e-07
-2.0509437e-06 1.4140544e-06 -1.0665799e-07 3.922014e-06 -5.7840602e-06 -4.95008e-07 -2.0946597e-06 9.793046e-06
1.3538779e-06 -8.326878e-07 6.8818813e-06 2.1731742e-06 -3.1232573e-06 7.269036e-06 2.998804e-06 6.2732724e-06
-4.2442272e-07 2.826322e-06 8.207688e-07 3.0258045e-06 7.586768e-06 6.4388214e-06 1.3349241e-06 6.300787e-06
1.5797058e-06 2.7657088e-06 2.1414983e-06 2.609188e-06 -7.1803976e-07 8.0004675e-06 3.4560715e-06 -3.0288645e-06
2.6547511e-06 4.398343e-06 1.2477252e-06 3.8031876e-06 -7.806367e-07 5.195557e-06 2.3681196e-06 9.4798515e-06
-4.276251e-06 7.4995933e-06 -1.4971811e-06 6.241392e-06 -2.4341784e-06 6.2422423e-06 2.194086e-08 -7.5753513e-07
6.7067303e-06 4.6090263e-06 3.7962727e-06 -7.3728455e-07 1.6552027e-05 1.314407e-06 6.1583046e-06 -1.1161785e-06
00000000: 41f6 8ab6 6575 31b6 cac3 7136 c7a3 92b5
00000010: 589d 72b5 1953 b7b4 7b1d 9c35 d9b0 06b5
00000020: 0b67 c735 0a47 69b5 11fd 5e34 b62c 1cb6
00000030: 4fed 8536 e75c da34 43f0 de35 4e0c ddb6
00000040: 7239 5fb5 d25d 4e35 fcec 9cb6 ae5b ccb5
00000050: 4efe 1936 5174 a1b6 7f11 e8b5 ed88 95b6
00000060: 3337 d034 13a7 03b6 fa88 9bb4 5bda 0fb6
00000070: 890d abb6 5789 8fb6 d501 79b5 bfd0 8ab6
00000080: dd37 91b5 196c 00b6 38a3 cdb5 5be4 e9b5
00000090: 1092 2135 2130 b6b6 3658 18b6 344e 0a36
000000a0: 2b66 d1b5 c506 40b6 334c 3ab5 714c 2bb6
000000b0: db5c 3135 ab3b 69b6 3000 cab5 f141 dab6
000000c0: dd6c 4e36 383d aab6 bc81 8e35 d0ae 8ab6
000000d0: d57b f835 016e 92b6 f2bf 7b31 3bee 2735
000000e0: 1b21 9ab6 280f 47b6 e613 23b6 415c 0f35
000000f0: 2640 42b7 ce81 06b5 3345 86b6 d08a 6635
00000100: e9ec 06b8 de5e abb7 bde7 dc37 d934 18b7
00000110: ccbd ffb6 5184 8eb6 f8e8 f036 d79d 88b6
00000120: bbbe 2f37 c6a4 04b7 8217 1ab4 6559 a3b7
00000130: eb37 fd37 9c24 1436 fb77 4437 4033 53b8
00000140: 32c1 d6b6 aa7a a236 7845 19b8 9c7d 44b7
00000150: 641a 8b37 3dd1 1cb8 f166 74b7 0901 11b8
00000160: f02f 0936 b8dd 86b7 882a 74b6 b06a 91b7
00000170: 5a49 24b8 eed7 0db8 9e85 e6b6 dd4f 07b8
00000180: e8a1 13b7 345e 74b7 efa7 48b7 139a 67b7
00000190: d3db 6b36 97d1 2db8 4a3e 96b7 ca8b 8137
000001a0: 1dc7 5bb7 3785 bcb7 d24a cbb6 7f1a aab7
000001b0: 9c06 7536 cfd8 dfb7 a1be 50b7 1b4e 4eb8
000001c0: acac b937 fe1b 23b8 c485 0137 9948 09b8
000001d0: 4602 5937 9c8b 0cb8 f5b1 c3b4 404a 9a36
000001e0: ba60 11b8 1f91 c6b7 5ebb a1b7 721d 8036
000001f0: ca46 bab8 fc95 c8b6 edab 03b8 8f37 c636
00000200: 544a 0638 425f ab37 d38c dab7 4e1a 1a37
00000210: cbcd ed36 986e 8736 0aa5 fab6 6780 8e36
00000220: 4c4a 2cb7 2c49 0637 545f d234 bcc2 9d37
00000230: 04ba f9b7 355e 08b6 3e3a 47b7 6657 4f38
00000240: 3cac cd36 e48c a5b6 187d 1838 ff27 4437
00000250: 1917 8ab7 00d5 1938 1e02 6b37 0724 1238
00000260: 2cf1 01b6 7e16 8937 e31c 6236 c1c0 9437
00000270: b675 2138 ac58 0c38 4fb4 e336 9b81 0438
00000280: 836f 1437 c39d 7237 3181 4b37 2d38 6637
00000290: 6875 60b6 e7fe 2a38 a85f 9437 4bf1 7cb7
000002a0: 1ba0 5437 6bc8 b837 89a3 c236 cec4 a937
000002b0: 0fa5 67b6 fc29 dc37 b22f 4f37 c957 4b38
000002c0: be9d b6b7 bfd4 2038 8a4d ffb6 e0ec 0738
000002d0: 47c2 56b7 1579 0c38 415d 1035 3b5a a0b6
000002e0: 4310 0f38 305a c237 a533 9e37 4c2b 7ab6
000002f0: bbd7 b938 5f9a bb36 051a 0138 152f c4b6
00000300: 5997 c936 99fb 7e36 22d5 a7b6 fb44 da35
00000310: f784 e035 8e2b 7735 fe4a 9eb5 4f99 3635
00000320: f2a2 09b6 8aca bd35 da0b e5b3 d899 8336
00000330: b314 c2b6 b1e0 04b5 fb91 0cb6 d04c 2437
00000340: e4b6 b535 df85 5fb5 e9ea e636 d9d6 1136
00000350: 2799 51b6 8be8 f336 0f3f 4936 007f d236
00000360: 37dc e3b4 d8ab 3d36 cd52 5c35 ed0e 4b36
00000370: d791 fe36 0e0d d836 a52b b335 596b d336
00000380: 4706 d435 849a 3936 a9b6 0f36 8219 2f36
00000390: 51bf 40b5 bf39 0637 dbee 6736 7f43 4bb6
000003a0: 4728 3236 7b95 9336 8377 a735 443a 7f36
000003b0: f28c 51b5 7f55 ae36 fceb 1e36 a70b 1f37
000003c0: b77c 8fb6 04a5 fb36 c0f2 c8b5 266d d136
000003d0: de5a 23b6 7474 d136 7678 bc32 6b59 4bb5
000003e0: 600a e136 3ca7 9a36 78c3 7e36 cfe9 45b5
000003f0: 35d9 8a37 ae6a b035 6fa3 ce36 9acf 95b5

exp_avg_sq f4 [32, 64]
4.731652e-10 1.5128918e-10 3.4074624e-10 1.6911539e-10 4.8605e-10 6.667928e-10 4.2497705e-10 7.055127e-11
1.532869e-10 3.6827233e-10 2.2390245e-10 8.027818e-10 3.7545125e-10 2.2254448e-10 5.886761e-10 7.4022216e-10
2.2623856e-10 1.7845943e-10 3.2203196e-10 2.365657e-10 4.271714e-10 3.0388891e-10 5.136037e-10 3.509013e-10
3.0095715e-10 3.902984e-10 2.2784229e-10 2.4274877e-10 3.4405725e-10 6.0169e-10 3.3156206e-10 6.1841793e-10
2.978898e-10 5.396311e-10 2.3012021e-10 3.1481592e-10 1.4764974e-10 1.3933442e-10 1.7135679e-10 3.6125788e-10
6.9939154e-10 2.7573996e-10 1.9225942e-10 1.8955346e-10 1.8552275e-10 3.6070125e-10 1.8074095e-10 4.2930876e-10
1.3931066e-10 2.2850678e-10 1.3852275e-10 4.460692e-10 3.6220604e-10 4.958559e-10 4.5753912e-10 2.924427e-10
2.465638e-10 2.7842648e-10 2.8297165e-10 1.9383206e-10 6.2397265e-10 4.4621412e-10 7.570825e-10 1.3030574e-10
2.3360856e-08 7.217257e-09 1.6027455e-08 7.916132e-09 2.4468047e-08 3.3100953e-08 2.1327642e-08 3.3772256e-09
7.205269e-09 1.7374388e-08 1.1180586e-08 4.071104e-08 1.8102572e-08 1.03281e-08 2.823992e-08 3.776187e-08
1.1445124e-08 8.92492e-09 1.5372708e-08 1.1362487e-08 2.0123041e-08 1.5106544e-08 2.5607221e-08 1.6545489e-08
1.4933804e-08 1.8787683e-08 1.1690956e-08 1.1513153e-08 1.6747048e-08 2.9141155e-08 1.577339e-08 3.0590456e-08
1.4286694e-08 2.6178324e-08 1.1664205e-08 1.5499925e-08 7.4126416e-09 7.025377e-09 8.280053e-09 1.709408e-08
3.4839985e-08 1.3710061e-08 9.509492e-09 8.979227e-09 9.033294e-09 1.8627889e-08 8.850159e-09 2.0719256e-08
6.8208705e-09 1.12146745e-08 6.7605193e-09 2.1833293e-08 1.7890383e-08 2.3510044e-08 2.3060805e-08 1.4043612e-08
1.2701715e-08 1.4390463e-08 1.3812389e-08 9.642996e-09 3.0045353e-08 2.243142e-08 3.7463558e-08 6.4992918e-09
2.3806953e-08 7.381117e-09 1.6056989e-08 8.113267e-09 2.4646292e-08 3.3374537e-08 2.15264e-08 3.412644e-09
7.368535e-09 1.7740458e-08 1.1282694e-08 4.0710326e-08 1.8608759e-08 1.0645695e-08 2.8658892e-08 3.7919907e-08
1.1411404e-08 8.966133e-09 1.5574875e-08 1.1529114e-08 2.044283e-08 1.5042765e-08 2.5735782e-08 1.6986206e-08
1.4983154e-08 1.9179927e-08 1.1752382e-08 1.173463e-08 1.6846448e-08 2.9467419e-08 1.6062605e-08 3.081169e-08
1.4676536e-08 2.6644638e-08 1.1694683e-08 1.5649785e-08 7.45609e-09 6.9969515e-09 8.386836e-09 1.7501016e-08
3.4929524e-08 1.3731962e-08 9.58673e-09 9.069308e-09 9.126945e-09 1.8611185e-08 8.9582475e-09 2.0806262e-08
6.933331e-09 1.1315647e-08 6.8802075e-09 2.1932545e-08 1.7982366e-08 2.418216e-08 2.3314087e-08 1.4190335e-08
1.2728436e-08 1.4317518e-08 1.3845216e-08 9.732871e-09 3.064456e-08 2.245516e-08 3.7616374e-08 6.5329875e-09
7.405408e-10 2.3211882e-10 5.792418e-10 2.5886535e-10 8.306944e-10 1.1422429e-09 7.237033e-10 1.1732251e-10
2.390026e-10 5.830468e-10 3.6988326e-10 1.404381e-09 5.985821e-10 3.280273e-10 9.538941e-10 1.2787543e-09
3.9442027e-10 3.0510955e-10 5.293509e-10 3.650512e-10 6.974698e-10 5.1961335e-10 9.0223334e-10 5.514625e-10
5.242529e-10 5.942442e-10 3.9658368e-10 3.9042963e-10 5.708729e-10 9.770734e-10 5.2733184e-10 1.056902e-09
4.4724535e-10 8.755098e-10 3.9939754e-10 5.1774485e-10 2.5340235e-10 2.4278796e-10 2.8934566e-10 5.609083e-10
1.1970546e-09 4.8101606e-10 3.1746936e-10 3.1612898e-10 3.0032418e-10 6.384849e-10 2.9965394e-10 7.1831296e-10
2.2607251e-10 3.8103024e-10 2.1222547e-10 7.698165e-10 5.9648436e-10 7.533767e-10 8.0836104e-10 4.8849663e-10
4.3340528e-10 4.908196e-10 4.802095e-10 3.2534056e-10 9.791599e-10 7.6672285e-10 1.2974961e-09 2.1537576e-10
00000000: 0a10 0230 1e58 262f c553 bb2f c0f1 392f
00000010: ba9a 0530 5f49 3730 34a2 e92f d624 9b2e
00000020: 6d8a 282f b975 ca2f f02e 762f bfaa 5c30
00000030: 1168 ce2f b4b0 742f 66d0 2130 8178 4b30
00000040: 7ec0 782f dd37 442f f809 b12f aa0d 822f
00000050: 08d7 ea2f 9010 a72f a62d 0d30 f8e8 c02f
00000060: f473 a52f 9e91 d62f e783 7a2f da73 852f
00000070: c125 bd2f 2b64 2530 3647 b62f 4bfd 2930
00000080: 43c4 a32f 2a55 1430 1505 7d2f 6712 ad2f
00000090: b557 222f 2733 192f a668 3c2f 879a c62f
000000a0: 4e3f 4030 f396 972f 3764 532f 8e6a 502f
000000b0: 03fc 4b2f 304c c62f 0eba 462f d603 ec2f
000000c0: 772c 192f f13e 7b2f b04e 182f a93a f52f
000000d0: f81f c72f c24c 0830 e888 fb2f a7c5 a02f
000000e0: c58c 872f 0b11 992f b890 9b2f e01e 552f
000000f0: 2c84 2b30 0e4f f52f f21a 5030 ce45 0f2f
00000100: 11ab c832 aafb f731 bfac 8932 84ff 0732
00000110: ce2d d232 e22a 0e33 fb33 b732 c814 6831
00000120: 3792 f731 af3e 9532 bd14 4032 43da 2e33
00000130: fa7f 9b32 776f 3132 3e94 f232 9d2f 2233
00000140: 30a0 4432 3754 1932 f10c 8432 bf34 4332
00000150: 09db ac32 a4c3 8132 e0f6 db32 ea1f 8e32
00000160: c847 8032 8d62 a132 5ed9 4832 62cb 4532
00000170: 26db 8f32 1452 fa32 0d7e 8732 9062 0333
00000180: 8b71 7532 bede e032 b763 4832 b224 8532
00000190: 49b2 fe31 df63 f131 0f40 0e32 48d6 9232
000001a0: f8a2 1533 7c89 6b32 305f 2332 0f43 1a32
000001b0: d930 1b32 2903 a032 690b 1832 20fa b132
000001c0: 035d ea31 a9aa 4032 284a e831 eb8b bb32
000001d0: 5ead 9932 22f3 c932 3f17 c632 7544 7132
000001e0: bc36 5a32 ed39 7732 874b 6d32 58aa 2532
000001f0: 370b 0133 37af c032 9ee7 2033 6050 df31
00000200: 0b80 cc32 fe9c fd31 b1ed 8932 8762 0b32
00000210: c5b5 d332 b157 0f33 0ee9 b832 de83 6a31
00000220: 522e fd31 ae63 9832 d0d5 4132 7ad9 2e33
00000230: 18d9 9f32 43e4 3632 922d f632 61dd 2233
00000240: e30b 4432 7809 1a32 83c9 8532 9411 4632
00000250: 429a af32 6437 8132 9511 dd32 10e9 9132
00000260: 4eb4 8032 1bc1 a432 86e7 4932 7399 4932
00000270: bbb5 9032 8a1f fd32 0bfa 8932 d055 0433
00000280: 1724 7c32 2ee0 e432 c3e9 4832 3e6e 8632
00000290: 3b18 0032 d669 f031 b215 1032 2455 9632
000002a0: 6b05 1633 cfe9 6b32 e2b2 2432 3dcf 1b32
000002b0: bbcc 1c32 6ede 9f32 cae6 1932 74b9 b232
000002c0: 393a ee31 be66 4232 f266 ec31 2d66 bc32
000002d0: a477 9a32 22b9 cf32 3844 c832 c1c9 7332
000002e0: 41ac 5a32 1cf9 7532 e7db 6d32 9f35 2732
000002f0: 0d9e 0333 6be3 c032 a48f 2133 c478 e031
00000300: ed8e 4b30 a437 7f2f 8538 1f30 0f50 8e2f
00000310: ec56 6430 19fd 9c30 18ee 4630 5aff 002f
00000320: a064 832f 4544 2030 7158 cb2f 4304 c130
00000330: 7889 2430 bd55 b42f 2a1a 8330 2bc0 af30
00000340: b8d5 d82f 5abc a72f c281 1130 64b0 c82f
00000350: 13b8 3f30 8ad4 0e30 0701 7830 b995 1730
00000360: 051b 1030 3858 2330 3106 da2f 16a4 d62f
00000370: 9ceb 1c30 b749 8630 aef3 1030 6f42 9130
00000380: 30e0 f52f 86a8 7030 3592 db2f 0e51 0e30
00000390: 364f 8b2f 5e79 852f c811 9f2f 6a2e 1a30
000003a0: 9d85 a430 7f38 0430 d787 ae2f 33cb ad2f
000003b0: df1a a52f 6181 2f30 8bbc a42f c872 4530
000003c0: c191 782f 3d79 d12f 2958 692f 059b 5330
000003d0: dbf5 2330 2c16 4f30 5a33 5e30 e546 0630
000003e0: 5f44 ee2f 5cea 0630 bdff 0330 9ddb b22f
000003f0: 2093 8630 53c1 5230 9653 b230 e3ce 6c2f

exp_avg f4 [32]
-4.7025674e-06 -4.0839805e-05 3.941304e-05 8.324781e-06 4.3413496e-07 2.5069103e-05 -1.0739332e-05 -2.2493723e-05
1.32821215e-05 -1.2564919e-05 -2.1725877e-05 1.6776796e-05 2.4325504e-07 -3.6737522e-06 1.456023e-05 6.736696e-06
1.6513835e-05 3.557424e-05 -4.3832766e-05 -2.1078051e-06 2.3504617e-05 -1.6990583e-05 1.9688332e-05 -7.6163537e-06
-1.427119e-05 -1.4500897e-05 1.0597186e-05 9.196948e-06 -2.3122522e-05 -1.2945608e-05 2.3243532e-05 1.9684201e-07
00000000: bfca 9db6 684b 2bb8 6e4f 2538 aaaa 0b37
00000010: 0e13 e934 7d4b d237 142d 34b7 e7b0 bcb7
00000020: 47d6 5e37 ebcd 52b7 f73f b6b7 e5bb 8c37
00000030: b898 8234 958a 76b6 b647 7437 c70b e236
00000040: 3187 8a37 8d35 1538 13d9 37b8 d173 0db6
00000050: c82b c537 0087 8eb7 5f28 a537 fb8f ffb6
00000060: 4b6e 6fb7 e148 73b7 91ca 3137 974c 1a37
00000070: 3df7 c1b7 f730 59b7 1bfb c237 855b 5334

exp_avg_sq f4 [32]
6.899164e-09 3.354105e-07 3.3918343e-07 1.1742875e-08 5.295722e-10 1.4717432e-07 2.7482042e-08 1.0016034e-07
3.968541e-08 2.6231932e-08 9.8344785e-08 6.532146e-08 3.1827976e-09 2.8031708e-09 7.232244e-08 1.21602515e-08
9.6018766e-08 3.3471133e-07 3.9162708e-07 8.210615e-09 1.13823354e-07 6.142291e-08 8.134446e-08 1.8050576e-08
3.9145835e-08 4.073951e-08 2.4474764e-08 2.4959622e-08 1.3062808e-07 4.8019636e-08 1.0063191e-07 1.671762e-08
00000000: b00d ed31 7812 b434 0419 b634 b6bd 4932
00000010: 5591 1130 f806 1e34 a611 ec32 bb17 d733
00000020: 9272 2a33 a154 e132 9e31 d333 da46 8c33
00000030: 5eb8 5a31 e7a1 4031 af4f 9b33 5ae9 5032
00000040: e032 ce33 60b2 b334 d140 d234 ab0e 0d32
00000050: 0d6f f433 9ae7 8333 97af ae33 a30d 9b32
00000060: 4d21 2833 91f9 2e33 933c d232 ca66 d632
00000070: c642 0c34 263e 4e33 fa1a d833 6f9a 8f32

exp_avg f4 [64, 32]
5.569803e-07 -3.4554364e-07 -2.1888918e-07 8.5761496e-07 -1.425889e-06 1.3133124e-06 3.222935e-07 2.3912997e-07
1.01448e-06 -5.4934503e-07 -2.9450686e-07 -3.9239314e-08 -6.57225e-07 3.0950608e-07 -4.3392717e-07 4.883311e-07
1.1083564e-07 7.583555e-07 4.7450135e-07 -9.0968706e-07 6.0546466e-07 -9.1172984e-07 2.330226e-08 2.4163714e-07
7.403568e-07 1.639671e-08 6.8829496e-07 1.7165947e-07 -1.370437e-07 -9.3931556e-07 -5.8414975e-07 3.1755695e-07
1.3418698e-06 -8.09326e-07 -5.6402166e-07 2.0576936e-06 -3.3784597e-06 3.1159916e-06 7.387092e-07 5.572108e-07
2.391048e-06 -1.3347722e-06 -6.934653e-07 -7.557445e-08 -1.5695227e-06 7.32707e-07 -1.0401101e-06 1.225371e-06
3.035972e-07 1.7880292e-06 1.1187233e-06 -2.1616868e-06 1.4251373e-06 -2.178415e-06 5.5406623e-08 6.0532403e-07
1.746126e-06 3.063995e-08 1.6352928e-06 4.502019e-07 -3.5056468e-07 -2.2226925e-06 -1.3867225e-06 7.164875e-07
-2.7830972e-06 1.695795e-06 1.1599278e-06 -4.2851125e-06 7.061081e-06 -6.515399e-06 -1.5708441e-06 -1.1861055e-06
-5.0090603e-06 2.753253e-06 1.4544357e-06 1.7372813e-07 3.2691783e-06 -1.5459407e-06 2.1720896e-06 -2.5117163e-06
-6.074418e-07 -3.7361606e-06 -2.3549212e-06 4.5203446e-06 -2.9786277e-06 4.5201105e-06 -1.2336778e-07 -1.2474303e-06
-3.654591e-06 -8.3253425e-08 -3.4085444e-06 -9.1000817e-07 7.065096e-07 4.6600994e-06 2.9093828e-06 -1.529086e-06
1.6675858e-06 -1.010804e-06 -7.025004e-07 2.5694608e-06 -4.2347283e-06 3.905051e-06 9.428659e-07 7.0888444e-07
2.992716e-06 -1.6458454e-06 -8.665069e-07 -1.0425001e-07 -1.9670545e-06 9.2605677e-07 -1.3007809e-06 1.5079812e-06
3.69418e-07 2.234818e-06 1.413568e-06 -2.7058743e-06 1.7828623e-06 -2.7096792e-06 6.8556425e-08 7.495168e-07
2.1868514e-06 5.4583463e-08 2.0418474e-06 5.509079e-07 -4.1833638e-07 -2.792871e-06 -1.7476546e-06 9.12963e-07
-1.9634651e-06 1.19278e-06 8.183119e-07 -3.01728e-06 4.9666583e-06 -4.583667e-06 -1.0986117e-06 -8.3216014e-07
-3.5205098e-06 1.9468e-06 1.0206651e-06 1.195186e-07 2.3049085e-06 -1.0853535e-06 1.5264053e-06 -1.7735194e-06
-4.2918737e-07 -2.6240575e-06 -1.6525076e-06 3.1781367e-06 -2.0944913e-06 3.1893019e-06 -8.3782346e-08 -8.77579e-07
-2.5706263e-06 -5.538186e-08 -2.4021276e-06 -6.4605416e-07 5.0133536e-07 3.277762e-06 2.0452458e-06 -1.0692866e-06
-1.0696252e-06 6.35583e-07 4.6157498e-07 -1.6360765e-06 2.6842172e-06 -2.475158e-06 -5.879024e-07 -4.512639e-07
-1.8931012e-06 1.0574089e-06 5.4850204e-07 6.32864e-08 1.2509557e-06 -5.832211e-07 8.272092e-07 -9.776229e-07
-2.4275076e-07 -1.4120543e-06 -8.922018e-07 1.7161578e-06 -1.1241958e-06 1.7315381e-06 -4.249284e-08 -4.864672e-07
-1.3828725e-06 -2.673696e-08 -1.2962905e-06 -3.635667e-07 2.7414418e-07 1.7661017e-06 1.1092731e-06 -5.635244e-07
-3.1978984e-06 1.9330248e-06 1.3446996e-06 -4.9116297e-06 8.082812e-06 -7.455875e-06 -1.7878893e-06 -1.3548421e-06
-5.7220936e-06 3.1644495e-06 1.6589199e-06 1.9606624e-07 3.751753e-06 -1.7629129e-06 2.486529e-06 -2.8964346e-06
-7.056834e-07 -4.2685047e-06 -2.6902449e-06 5.1695356e-06 -3.4029442e-06 5.1912734e-06 -1.3420447e-07 -1.4376612e-06
-4.177803e-06 -8.9132854e-08 -3.904627e-06 -1.0589241e-06 8.147744e-07 5.328009e-06 3.331344e-06 -1.7321906e-06
2.836204e-06 -1.7071479e-06 -1.202727e-06 4.3535424e-06 -7.1664676e-06 6.609398e-06 1.5882742e-06 1.2084672e-06
5.066097e-06 -2.7993585e-06 -1.4676402e-06 -1.776216e-07 -3.3303659e-06 1.5649898e-06 -2.2038832e-06 2.5668185e-06
6.252201e-07 3.7753073e-06 2.3898576e-06 -4.5820857e-06 3.009054e-06 -4.599957e-06 1.1602941e-07 1.2769215e-06
3.700236e-06 8.397075e-08 3.4578252e-06 9.4206126e-07 -7.157726e-07 -4.7246212e-06 -2.9611617e-06 1.5329584e-06
00000000: 6583 1535 2883 b9b4 cd07 6bb4 da36 6635
00000010: 2c61 bfb5 1245 b035 ae07 ad34 c661 8034
00000020: 4429 8835 b476 13b5 b71c 9eb4 1588 28b3
00000030: 286c 30b5 312a a634 7ff6 e8b4 dc15 0335
00000040: 8a04 ee33 cb91 4b35 f8be fe34 3831 74b5
00000050: 3787 2235 99bd 74b5 362a c832 5bba 8134
00000060: efbc 4635 bfd8 8c32 45c3 3835 6551 3834
00000070: 4926 13b4 4625 7cb5 77ce 1cb5 b27c aa34
00000080: 4c1a b435 7640 59b5 4667 17b5 e816 0a36
00000090: 7fb9 62b6 541c 5136 b64b 4635 3c93 1535
000000a0: e475 2036 6c26 b3b5 9326 3ab5 7e4b a2b3
000000b0: 64a8 d2b5 3eaf 4435 e999 8bb5 6d77 a435
000000c0: 15fe a234 37fc ef35 0a27 9635 7f11 11b6
000000d0: 5847 bf35 e230 12b6 3af8 6d33 8d7d 2235
000000e0: 6f5c ea35 fb98 0333 3c7c db35 47b3 f134
000000f0: 3e35 bcb4 9129 15b6 6c1f bab5 a554 4035
00000100: 3fc5 3ab6 139b e335 d1ae 9b35 d6c8 8fb6
00000110: 39ee ec36 da9e dab6 cbd5 d2b5 4632 9fb5
00000120: 8013 a8b6 87c4 3836 0836 c335 068a 3a34
00000130: 0e64 5b36 1e7e cfb5 37c4 1136 f58e 28b6
00000140: 150f 23b5 c0ba 7ab6 3d09 1eb6 77ad 9736
00000150: 6fe4 47b6 74ab 9736 1477 04b4 616d a7b5
00000160: 6541 75b6 0ec9 b2b3 59be 64b6 4947 74b5
00000170: f8a6 3d35 f35d 9c36 d13e 4336 ff3a cdb5
00000180: d0d1 df35 f6aa 87b5 7693 3cb5 006f 2c36
00000190: 0a18 8eb6 2208 8336 4019 7d35 2b4a 3e35
000001a0: 78d6 4836 d1e6 dcb5 e799 68b5 0de0 dfb3
000001b0: bd01 04b6 2396 7835 7e96 aeb5 d765 ca35
000001c0: 6c54 c634 e2f9 1536 d4b9 bd35 9196 35b6
000001d0: af4a ef35 efd7 35b6 4b39 9333 6732 4935
000001e0: d2c1 1236 276f 6a33 ac06 0936 1ae2 1335
000001f0: b797 e0b4 296d 3bb6 f490 eab5 5712 7535
00000200: 13c4 03b6 9c17 a035 f7a9 5b35 7a7c 4ab6
00000210: 45a7 a636 66cd 99b6 0374 93b5 9c61 5fb5
00000220: e641 6cb6 c5a5 0236 c9fd 8835 0655 0034
00000230: 07ae 1a36 76ac 91b5 e3de cc35 aa09 eeb5
00000240: 106b e6b4 f718 30b6 bbcb ddb5 f947 5536
00000250: 168f 0cb6 ca07 5636 d5eb b3b3 c592 6bb5
00000260: 0683 2cb6 00dd 6db3 3d34 21b6 816c 2db5
00000270: 8193 0635 86f7 5b36 0e41 0936 6884 8fb5
00000280: 0b90 8fb5 ee9c 2a35 62ce f734 2997 dbb5
00000290: 8022 3436 e41a 26b6 58d0 1db5 3d45 f2b4
000002a0: 7616 feb5 4bec 8d35 c63c 1335 11e8 8733
000002b0: 83e6 a735 a68e 1cb5 620d 5e35 de36 83b5
000002c0: 6953 82b4 d185 bdb5 a47f 6fb5 bc56 e635
000002d0: 13e3 96b5 3267 e835 5f81 36b3 c595 02b5
000002e0: 239b b9b5 32ab e5b2 34fc adb5 3a30 c3b4
000002f0: 172e 9334 cb0a ed35 55e2 9435 1a45 17b5
00000300: 7a9b 56b6 1db9 0136 877b b435 94ce a4b6
00000310: 6a9b 0737 7b2d fab6 69f7 efb5 05d8 b5b5
00000320: 6900 c0b6 d45c 5436 0ea8 de35 4786 5234
00000330: a0c6 7b36 3a9d ecb5 3ede 2636 5e60 42b6
00000340: 326e 3db5 2d3a 8fb6 0e8a 34b6 f975 ad36
00000350: 235e 64b6 b330 ae36 d819 10b4 aaf5 c0b5
00000360: 0e2f 8cb6 4e69 bfb3 7e04 83b6 5b20 8eb5
00000370: dfb6 5a35 40c7 b236 0e90 5f36 9e7d e8b5
00000380: 9d55 3e36 2821 e5b5 636d a1b5 a514 9236
00000390: 7d77 f0b6 4cc6 dd36 b02c d535 9e32 a235
000003a0: 71fd a936 9ddc 3bb6 bcfb c4b5 41b8 3eb4
000003b0: 407f 5fb6 a40c d235 6de6 13b6 9b41 2c36
000003c0: ccd4 2735 495b 7d36 7161 2036 d1bf 99b6
000003d0: 27ef 4936 5459 9ab6 d82b f933 b062 ab35
000003e0: 9251 7836 6853 b433 fc0c 6836 f5e1 7c35
000003f0: 8523 40b5 3088 9eb6 5fb8 46b6 0dc0 cd35

exp_avg_sq f4 [64, 32]
4.864359e-12 4.2594686e-12 7.2675967e-12 1.3040095e-11 1.3327034e-11 8.299564e-12 6.507254e-12 2.2460618e-11
6.3824935e-12 1.5314186e-11 4.8145476e-12 5.5344947e-12 1.32192885e-11 4.6161074e-12 5.54638e-12 3.6001205e-11
2.0981463e-11 1.0482024e-11 4.5194937e-12 4.330727e-12 1.1504943e-11 2.4343489e-11 3.6852322e-12 7.1462376e-12
3.6431266e-12 3.7596766e-12 8.3864755e-12 1.9444819e-11 6.914265e-12 8.265269e-12 3.2659667e-12 5.472171e-12
4.3891765e-11 3.741758e-11 6.1136186e-11 1.4107782e-10 1.3224738e-10 6.724273e-11 5.4654697e-11 2.1001627e-10
5.639053e-11 1.6644777e-10 5.079449e-11 4.9793787e-11 1.1785552e-10 4.2420647e-11 6.25886e-11 3.3892403e-10
1.9878516e-10 1.0050312e-10 4.1364426e-11 4.0491818e-11 1.1702421e-10 2.2438157e-10 3.2005402e-11 6.109485e-11
3.306907e-11 4.254971e-11 7.7278926e-11 1.8192749e-10 5.9569086e-11 7.138511e-11 3.0728975e-11 4.8899274e-11
2.295718e-10 1.8947334e-10 3.0070715e-10 7.826203e-10 6.9562783e-10 3.2582223e-10 2.7123517e-10 1.1111633e-09
2.9244712e-10 9.76328e-10 2.8507424e-10 2.510184e-10 5.868377e-10 2.259102e-10 3.811681e-10 1.759172e-09
1.0224354e-09 5.212392e-10 2.1343337e-10 2.170694e-10 6.2882116e-10 1.1370963e-09 1.5843192e-10 3.0883837e-10
1.6744318e-10 2.4219077e-10 3.952279e-10 9.438488e-10 2.9585345e-10 3.546083e-10 1.637326e-10 2.443372e-10
8.155903e-11 6.615835e-11 1.05239824e-10 2.8559113e-10 2.5140715e-10 1.1317644e-10 9.4955536e-11 3.9438958e-10
1.02204696e-10 3.568711e-10 1.0296538e-10 8.79327e-11 2.060458e-10 8.051874e-11 1.3978103e-10 6.2751326e-10
3.65013e-10 1.849103e-10 7.4688346e-11 7.762919e-11 2.2385281e-10 3.9628964e-10 5.6185112e-11 1.09066534e-10
5.8689914e-11 8.9261744e-11 1.3814595e-10 3.374814e-10 1.02968696e-10 1.2342091e-10 5.8224356e-11 8.794647e-11
1.0020885e-10 8.419414e-11 1.3601237e-10 3.249818e-10 2.9782413e-10 1.487792e-10 1.2177065e-10 4.800839e-10
1.2840426e-10 3.9706696e-10 1.1851883e-10 1.1118116e-10 2.609795e-10 9.757611e-11 1.527951e-10 7.6343115e-10
4.4462983e-10 2.2656405e-10 9.359039e-11 9.318171e-11 2.67702e-10 5.0179777e-10 7.0801594e-11 1.3746149e-10
7.3947036e-11 9.8995825e-11 1.7389766e-10 4.1008333e-10 1.3256599e-10 1.5924115e-10 7.050868e-11 1.08045434e-10
3.3018466e-11 2.663128e-11 4.227267e-11 1.1667732e-10 1.0224242e-10 4.5579786e-11 3.8423875e-11 1.6049384e-10
4.1370064e-11 1.4693118e-10 4.1828496e-11 3.536992e-11 8.3419834e-11 3.2582187e-11 5.7747102e-11 2.5550956e-10
1.4810078e-10 7.470637e-11 3.012579e-11 3.164511e-11 9.0792526e-11 1.6025115e-10 2.2671955e-11 4.4056838e-11
2.3644081e-11 3.6414947e-11 5.601586e-11 1.3740459e-10 4.1623868e-11 4.9553382e-11 2.3747336e-11 3.5655926e-11
2.7093702e-10 2.2935912e-10 3.697218e-10 8.932997e-10 8.183351e-10 4.02052e-10 3.3033384e-10 1.3004294e-09
3.461841e-10 1.0728769e-09 3.2389477e-10 3.0473726e-10 7.119419e-10 2.6283956e-10 4.1010378e-10 2.083882e-09
1.2210679e-09 6.22003e-10 2.555271e-10 2.52423e-10 7.3267215e-10 1.3713912e-09 1.9364671e-10 3.711015e-10
2.0271165e-10 2.7248756e-10 4.745355e-10 1.1171233e-09 3.6133785e-10 4.3273551e-10 1.917201e-10 2.9699324e-10
2.3523114e-10 1.9472597e-10 3.1006175e-10 8.1169427e-10 7.232494e-10 3.3316394e-10 2.7820177e-10 1.1372998e-09
2.9686256e-10 9.977181e-10 2.939303e-10 2.5889776e-10 6.036793e-10 2.3009114e-10 3.878175e-10 1.8162257e-09
1.0605352e-09 5.4026333e-10 2.1948778e-10 2.2243261e-10 6.4756644e-10 1.1693045e-09 1.6438138e-10 3.1659658e-10
1.7289994e-10 2.5155192e-10 4.064904e-10 9.739008e-10 3.0408215e-10 3.6307435e-10 1.6819118e-10 2.5533511e-10
00000000: 4026 ab2c e2dd 952c b1b4 ff2c 5e67 652d
00000010: a073 6a2d ea01 122d 22f4 e42c d190 c52d
00000020: 6490 e02c 7bb4 862d 9765 a92c 4cba c22c
00000030: 628e 682d 336a a22c 5a25 c32c c155 1e2e
00000040: 0e8e b82d d766 382d fb03 9f2c b95f 982c
00000050: a865 4a2d aa20 d62d 9fa9 812c 966f fb2c
00000060: 5e2e 802c 2848 842c 5489 132d d709 ab2d
00000070: 2a46 f32c 7667 112d 6dd2 652c ef88 c02c
00000080: bc09 412e 7390 242e 9d70 862e e01d 1b2f
00000090: 5468 112f 4bde 932e b85f 702e 53ea 662f
000000a0: 1802 782e e202 372f 8365 5f2e d2fe 5a2e
000000b0: 6195 012f 6791 3a2e 40a2 892e 5153 ba2f
000000c0: 0c91 5a2f 3a02 dd2e 34ec 352e bc15 322e
000000d0: 63ab 002f ccb5 762f e1c2 0c2e 5859 862e
000000e0: 7670 112e b722 3b2e 2bf0 a92e 0908 482f
000000f0: 6afe 822e 3ffa 9c2e c025 072e b00f 572e
00000100: b86a 7c2f 0154 502f c550 a52f 0220 5730
00000110: 7536 3f30 671f b32f f51c 952f 95b7 9830
00000120: 46c6 a02f 7d2f 8630 a2b8 9c2f b3ff 892f
00000130: 084f 2130 1164 782f a48c d12f 5dc7 f130
00000140: bf85 8c30 f346 0f30 27ac 6a2f 9bab 6e2f
00000150: 5bd9 2c30 0548 9c30 9f32 2e2f 23c9 a92f
00000160: 111b 382f 5225 852f 6247 d92f bab8 8130
00000170: aca5 a22f aef2 c22f a106 342f 6753 862f
00000180: a759 b32e d77b 912e c16c e72e 6101 9d2f
00000190: 6936 8a2f ace0 f82e 37cf d02e 66d1 d82f
000001a0: 21c0 e02e 2431 c42f 5b6c e22e b65d c12e
000001b0: bd8c 622f 0510 b12e ddb0 192f 527d 2c30
000001c0: 03ab c82f 9f4f 4b2f cd3d a42e 59b5 aa2e
000001d0: f720 762f cfdc d92f d01a 772e 00d7 ef2e
000001e0: 7c0f 812e e549 c42e a1e4 172f 4988 b92f
000001f0: 396e e22e e6b3 072f 6609 802e 7665 c12e
00000200: 915c dc2e 1625 b92e 148c 152f 1fa9 b22f
00000210: 05bb a32f 9f95 232f 64e3 052f e7f6 0330
00000220: 962e 0d2f 354a da2f 1650 022f 6e7d f42e
00000230: 9979 8f2f 7792 d62e ffff 272f b1d9 5130
00000240: 1670 f42f 1c1c 792f b5ce cd2e a4e8 cc2e
00000250: b52b 932f e1ee 0930 c1b1 9b2e f823 172f
00000260: 7b9c a22e b2b1 d92e d733 3f2f 1972 e12f
00000270: 02c2 112f 6616 2f2f dc0c 9b2e 2c98 ed2e
00000280: 7d37 112e 5040 ea2d ccea 392e bf49 002f
00000290: 5ed5 e02e 4776 482e 70fd 282e 0077 302f
000002a0: 8df2 352e 738d 212f b3f6 372e fd8e 1b2e
000002b0: 3171 b72e 484c 0f2e 75f9 7d2e c677 8c2f
000002c0: aad6 222f f347 a42e a07e 042e 3a2d 0b2e
000002d0: a6a7 c72e b032 302f b46c c72d 97c3 412e
000002e0: bdf9 cf2d 9627 202e 405c 762e f413 172f
000002f0: 4f10 372e 26f0 592e 3fe2 d02d 01d1 1c2e
00000300: fff2 942f da2e 7c2f b841 cb2f 618c 7530
00000310: 37f1 6030 ca07 dd2f 5b9a b52f cbba b230
00000320: 1551 be2f 8074 9330 2310 b22f f587 a72f
00000330: 75b2 4330 617f 902f fa74 e12f 0a34 0f31
00000340: 82d2 a730 92f9 2a30 3e7a 8c2f 61c5 8a2f
00000350: 3865 4930 8a7b bc30 b4ea 542f e503 cc2f
00000360: 42e2 5e2f 37cd 952f 7870 0230 4889 9930
00000370: c8a5 c62f 1ce6 ed2f 69cc 522f 1546 a32f
00000380: d751 812f 7d1a 562f 5075 aa2f e81d 5f30
00000390: 27ce 4630 a828 b72f 6bf1 982f 2e4f 9c30
000003a0: b133 a32f 1620 8930 0397 a12f 9f54 8e2f
000003b0: 27f0 2530 e6fc 7c2f 7634 d52f c39e f930
000003c0: 44c2 9130 a781 1430 5154 712f 3791 742f
000003d0: 7000 3230 3fb5 a030 3fbd 342f 020d ae2f
000003e0: 021b 3e2f c94a 8a2f 7078 df2f 17da 8530
000003f0: c22b a72f 2c9a c72f 9ced 382f 395f 8c2f

exp_avg f4 [64]
1.3709524e-06 3.4776858e-06 -7.087157e-06 4.2754614e-06 -5.018691e-06 -2.785891e-06 -8.2046945e-06 7.284069e-06
-6.1369524e-06 2.4227718e-06 2.3632394e-06 -4.165941e-07 -5.4378315e-06 -1.965997e-06 6.0479774e-06 -1.2290026e-06
1.9739439e-06 -2.872927e-06 -4.629057e-07 7.7770255e-07 -4.6602922e-06 -7.2742873e-06 -3.106124e-06 2.9299795e-06
-1.2403187e-06 -1.518785e-06 4.7875274e-06 -6.53748e-06 -3.2063244e-06 -2.8933982e-06 -6.812522e-06 4.8674804e-07
-5.7954944e-06 -1.5459669e-06 -5.376529e-06 5.3769927e-06 6.1006954e-06 -2.7243025e-06 -2.4363815e-06 8.742921e-06
4.340938e-07 1.9390952e-06 -3.815218e-06 -7.4226423e-06 -6.5087884e-06 -9.836757e-07 -3.8009503e-06 8.997243e-06
-1.0035375e-06 -2.857249e-06 -4.0717464e-06 -3.1543123e-06 -8.1806775e-06 -1.3208188e-06 -2.0992186e-06 7.2277107e-06
5.9601684e-06 -5.326712e-06 -2.8414454e-06 -2.647848e-06 -2.809218e-06 5.8987257e-06 -2.2607587e-06 2.363928e-06
00000000: 9101 b835 3062 6936 37ce edb6 ef75 8f36
00000010: 3a66 a8b6 3ef5 3ab6 e5a6 09b7 ad69 f436
00000020: 05ec cdb6 e796 2236 2598 1e36 42a8 dfb4
00000030: 9e76 b6b6 92ef 03b6 bbef ca36 35f4 a4b5
00000040: 1978 0436 83cc 40b6 4685 f8b4 50c3 5035
00000050: 9b5f 9cb6 a715 f4b6 ce72 50b6 aaa0 4436
00000060: 0779 a6b5 0ed9 cbb5 8ca4 a036 875c dbb6
00000070: 3c2c 57b6 342c 42b6 1e97 e4b6 12a9 0235
00000080: eb76 c2b6 057f cfb5 0868 b4b6 046c b436
00000090: 93b4 cc36 29d3 36b6 b780 23b6 8fae 1237
000000a0: 660d e934 6721 0236 7904 80b6 0310 f9b6
000000b0: 1166 dab6 d706 84b5 d413 7fb6 ddf2 1637
000000c0: 49b1 86b5 2abf 3fb6 09a0 88b6 acae 53b6
000000d0: be3f 09b7 fd46 b1b5 4de0 0cb6 9085 f236
000000e0: 75fd c736 1cbc b2b6 a9af 3eb6 afb1 31b6
000000f0: ff85 3cb6 abed c536 8ab7 17b6 f9a3 1e36

exp_avg_sq f4 [64]
4.534427e-10 4.3775428e-09 2.327043e-08 8.3519955e-09 9.970453e-09 3.4101213e-09 2.7139677e-08 2.3983443e-08
1.5816457e-08 2.556464e-09 2.678868e-09 7.1959494e-11 1.2879169e-08 2.6999107e-09 1.2738231e-08 9.436512e-10
1.0815359e-09 3.0753127e-09 6.9186434e-11 6.1355715e-10 8.298433e-09 2.2056515e-08 4.748074e-09 3.5581198e-09
3.6451786e-10 1.0397938e-09 9.095488e-09 1.9055813e-08 5.4127574e-09 4.13862e-09 2.1170704e-08 1.6767006e-10
1.4904414e-08 5.926468e-10 1.4033895e-08 1.09361595e-08 1.8792264e-08 4.3456323e-09 2.530786e-09 3.0407733e-08
1.141435e-09 1.4768733e-09 5.298351e-09 2.2615339e-08 1.7966574e-08 2.6231828e-10 6.213093e-09 3.1092405e-08
3.2802489e-10 3.2924519e-09 7.1747874e-09 3.9731045e-09 2.3071099e-08 4.903426e-10 2.2632523e-09 2.3534492e-08
1.16540315e-08 9.747164e-09 3.2070415e-09 3.5883443e-09 3.6173418e-09 1.6168556e-08 2.4189573e-09 2.2068747e-09
00000000: 6348 f92f 4669 9631 37e4 c732 777c 0f32
00000010: 844a 2b32 7d57 6a31 c820 e932 2604 ce32
00000020: c2dc 8732 caad 2f31 2517 3831 983d 9e2e
00000030: 2f43 5d32 5589 3931 55d7 5a32 c6b1 8130
00000040: 29a5 9430 7955 5331 8024 982e 3fa7 2830
00000050: e590 0e32 ca76 bd32 8024 a331 1b83 7431
00000060: 5465 c82f 7ee8 8e30 6142 1c32 2db0 a332
00000070: 1efb b931 b033 8e31 dfda b532 ed5a 382f
00000080: 2707 8032 d0e7 2230 b919 7132 bde1 3b32
00000090: a06c a132 9650 9531 0fea 2d31 a899 0233
000000a0: ace0 9c30 dcfa ca30 ca0c b631 a843 c232
000000b0: ea54 9a32 0436 902f f27a d531 768a 0533
000000c0: 6655 b42f 6d41 6231 1986 f631 cc83 8831
000000d0: e22d c632 cbc8 0630 8e87 1b31 e528 ca32
000000e0: f936 4832 7b74 2732 df62 5c31 d296 7631
000000f0: f394 7831 08e3 8a32 bf3a 2631 c0a7 1731

exp_avg f4 [1, 64]
-7.979516e-06 -3.864468e-06 7.4178383e-06 -3.372156e-05 2.7332549e-06 -2.1035146e-06 1.6329745e-05 -2.5309379e-05
1.3383634e-05 -2.1505537e-05 5.8550263e-06 4.59129e-05 6.3042295e-05 1.5013929e-05 1.945854e-07 1.0270701e-05
-1.9032896e-05 2.5345596e-05 3.154111e-05 7.179297e-06 1.8395967e-05 1.9901217e-05 -1.0148894e-07 9.587282e-06
6.6852253e-06 1.8400035e-05 2.5421215e-05 1.8527213e-05 4.5648057e-06 1.7367094e-05 -2.7978626e-06 1.1334245e-05
-1.0542353e-06 1.0536378e-05 1.0787372e-05 -2.4113565e-06 -1.517213e-05 -3.8067903e-06 2.9922119e-06 -1.19266315e-05
5.898928e-06 2.896569e-06 2.9187097e-06 5.1678117e-06 1.2528249e-06 2.0869733e-05 1.938901e-06 9.076257e-06
2.0913101e-05 1.381101e-05 2.8676544e-05 6.743077e-07 -5.339878e-06 -4.8370694e-06 2.2494434e-05 -2.3254579e-05
5.0133813e-06 -7.365722e-06 4.3244395e-06 -9.610206e-07 3.3814515e-06 1.02178665e-05 -2.418677e-06 -4.259449e-06
00000000: c3df 05b7 87ab 81b6 bfe6 f836 4070 0db8
00000010: f66c 3736 1b2a 0db6 dcfb 8837 7a4f d4b7
00000020: 458a 6037 ca66 b4b7 4b76 c436 9a92 4038
00000030: 9335 8438 56e4 7b37 3aef 5034 5350 2c37
00000040: d5a8 9fb7 419d d437 024b 0438 b1e5 f036
00000050: 0a51 9a37 8af1 a637 23f2 d9b3 10d9 2037
00000060: a651 e036 c659 9a37 a53f d537 e36a 9b37
00000070: 622b 9936 8daf 9137 eac2 3bb6 3628 3e37
00000080: 407f 8db5 66c5 3037 69fb 3437 cad2 21b6
00000090: cd8b 7eb7 2978 7fb6 cfcd 4836 7e18 48b7
000000a0: 68ef c536 ad62 4236 0ddf 4336 2a67 ad36
000000b0: bc26 a835 6911 af37 111e 0236 3a46 1837
000000c0: 8b6e af37 d6b5 6737 698e f037 1302 3535
000000d0: 342d b3b6 1c4e a2b6 6eb2 bc37 d412 c3b7
000000e0: 9e38 a836 1227 f7b6 a71a 9136 6bfc 80b5
000000f0: e5ec 6236 676d 2b37 8e50 22b6 63ec 8eb6
