checkpoints/radarfields_ep0005.pth (torch, 171637 bytes, 30 tensors)

exp_avg f4 [64, 63]
00000000: 8d14 cfb7 f199 93b8 81d4 6cb8 11fe a7b4
00000010: 272a b2b8 af19 67b8 2f96 3ab7 21be b0b8
00000020: b735 0c37 56d0 5eb8 c405 4bb8 4f89 b9b8
00000030: 1ba7 0eb8 386a 90b8 12fe 79b7 8e7a 19b7
00000040: 58f2 5bb7 df9b 0a36 0d51 e9b6 6d6e 76b7
00000050: ecda 99b8 88d1 23b8 2920 fab7 bd1c d737
00000060: 9c5e 3238 3068 05b8 64ab a4b8 bad9 90b7
00000070: d291 1f38 5373 5cb8 1e04 93b8 24ac 22b8
00000080: f1e2 1fb8 1453 af35 ab5f bcb7 8670 92b8
00000090: ef22 86b7 8ee3 1236 4414 e836 db0d 90b6
000000a0: 21dd fc35 2032 0db8 4f0e 2836 7eab edb7
000000b0: 4a77 e0b8 3a2d 24b7 460d cb35 e91d 4439
000000c0: d366 d2b7 d41e d237 e074 c138 8aa2 1e38
000000d0: 0000 0000 0000 0000 0000 0000 0000 0000
000000e0: 0000 0000 0000 0000 0000 0000 0000 0000
000000f0: 0000 0000 0000 0000 0000 0000 a296 8036
00000100: 40de 7637 8eb5 9237 bcac ea37 a717 a536
00000110: 8ebc 5737 e124 f336 9c52 87b7 a425 aeb5
00000120: 406a 04b7 5153 8a37 657f dd36 2500 92b7
00000130: 2a51 39b7 5e4a 74b7 006a 0cb7 68fc 0337
00000140: 650e 8cb7 1c80 3bb7 30e7 9f36 0382 01b8
00000150: 08ce d5b6 1a8c 44b7 a92d 5337 aea5 9736
00000160: 0fa8 d9b7 8578 3237 9f50 26b7 da0b fd36
00000170: 7b12 2cb6 10b3 a1b7 2259 d7b6 8a5d b236
00000180: 123e 9736 c485 b934 acd4 89b7 8821 a4b6
00000190: 89c2 1f37 060a 37b7 a70a 93b6 963a e1b5
000001a0: ce08 0db7 4861 22b6 aab3 ecb5 68f0 0eb7
000001b0: ba1d 5b34 8744 6135 2a79 a337 045a 3635
000001c0: 5925 9236 24e2 7737 bb03 3836 0000 0000
000001d0: 0000 0000 0000 0000 0000 0000 0000 0000
000001e0: 0000 0000 0000 0000 0000 0000 0000 0000
000001f0: 0000 0000 0000 0000 b935 4538 b921 05b9
00000200: 7246 9bb8 49b0 0a38 e4d1 83b8 44a2 6bb8
00000210: 7372 96b7 5e10 e131 1d1e 40b6 871d 1fb8
00000220: 445b 25b6 4a24 33b8 1d1b 3db8 5e91 b9b7
00000230: fb78 81b7 a299 23b8 b15b 7a36 9e71 74b7
00000240: 0511 94b6 ed6f 8fb7 89b9 46b8 4977 4bb6
00000250: 8c4d c436 d6e9 1137 11d2 3836 08c5 97b7
00000260: a332 4d37 8451 6736 64c8 3237 1a50 0038
00000270: 77bb 9bb6 416f 82b7 84cc e936 34a3 69b7
00000280: 1594 19b6 c5a5 86b6 34af 84b7 8785 8bb7
00000290: 89bd 49b7 bbec 77b5 715a 8db6 27e1 3b37
000002a0: 193c 82b6 85e0 ceb6 25b1 1e38 102b ccb6
000002b0: 4666 4637 fedd 9138 c883 6eb7 c8d4 6e37
000002c0: 6ad5 db37 9655 4fb6 0000 0000 0000 0000
000002d0: 0000 0000 0000 0000 0000 0000 0000 0000
000002e0: 0000 0000 0000 0000 0000 0000 0000 0000
000002f0: 0000 0000 a306 1738 15ab 9d37 1d89 3735
00000300: 5934 17b7 9895 06b8 5847 be33 3e31 d0b7
00000310: 616a 17b8 d9e7 f7b5 9d05 11b8 90f0 0337
00000320: 2f58 9eb6 83cb 3cb8 2aa4 06b7 ac96 0cb7
00000330: fa05 84b7 ad69 b4b6 3999 1cb8 8776 14b8
00000340: bde3 2cb7 359a f3b7 d33b ec36 f652 46b7
00000350: 2903 1e37 7ff3 8636 1963 70b7 ef4f 1937
00000360: 110c 0236 abd0 2736 599a 4e37 62c3 6737
00000370: f0c2 15b7 0c37 e7b7 509d b235 0d42 8534
00000380: ede0 a5b7 1cf4 01b6 c98e bab6 cec3 6cb7
00000390: 9471 47b5 c6c3 9135 7eb5 56b6 b8a0 7736
000003a0: 5a75 c636 5708 e736 3759 ff33 a6ec c1b6
000003b0: 15ce 0938 e555 93b6 4e88 2f36 6542 bd37
000003c0: 816c 7236 0000 0000 0000 0000 0000 0000
000003d0: 0000 0000 0000 0000 0000 0000 0000 0000
000003e0: 0000 0000 0000 0000 0000 0000 0000 0000
000003f0: aabc 1c38 ef6f f638 2443 76b7 c4b8 3237
-2.4685893e-05 -7.03818e-05 -5.6464694e-05 -3.1291032e-07 -8.495553e-05 -5.509861e-05 -1.1121431e-05 -8.427748e-05
8.357157e-06 -5.3122953e-05 -4.840434e-05 -8.847063e-05 -3.4011067e-05 -6.88624e-05 -1.4900712e-05 -9.148045e-06
-1.3109842e-05 2.0654331e-06 -6.9533767e-06 -1.4688453e-05 -7.336386e-05 -3.905737e-05 -2.9817298e-05 2.564338e-05
4.252662e-05 -3.1806703e-05 -7.8520534e-05 -1.7267525e-05 3.804436e-05 -5.255949e-05 -7.010273e-05 -3.878413e-05
-3.811991e-05 1.3062695e-06 -2.2455895e-05 -6.9827816e-05 -1.5990312e-05 2.188815e-06 6.916498e-06 -4.2931474e-06
1.883982e-06 -3.3663702e-05 2.504228e-06 -2.8332459e-05 -0.00010703372 -9.785692e-06 1.5128542e-06 0.00018703159
-2.5081832e-05 2.5048306e-05 9.224727e-05 3.782151e-05 0.0 0.0 0.0 0.0
0.0 0.0 0.0 0.0 0.0 0.0 0.0 3.8322332e-06
1.4714489e-05 1.74891e-05 2.797541e-05 4.9201367e-06 1.28589e-05 7.2462576e-06 -1.6131722e-05 -1.2974965e-06
-7.892551e-06 1.648968e-05 6.601144e-06 -1.7404624e-05 -1.1045757e-05 -1.4560848e-05 -8.36933e-06 7.866976e-06
-1.6696004e-05 -1.1175896e-05 4.765483e-06 -3.087708e-05 -6.37188e-06 -1.171513e-05 1.2587211e-05 4.5194383e-06
-2.5946674e-05 1.0637687e-05 -9.913142e-06 7.5413673e-06 -2.5640754e-06 -1.9276078e-05 -6.4178757e-06 5.3157028e-06
4.5073766e-06 3.4556263e-07 -1.6430706e-05 -4.8914844e-06 9.522432e-06 -1.0909984e-05 -4.3821815e-06 -1.6780857e-06
-8.406305e-06 -2.4196506e-06 -1.7635659e-06 -8.5198335e-06 2.0406779e-07 8.391875e-07 1.9487536e-05 6.7931273e-07
4.355487e-06 1.4775e-05 2.7420308e-06 0.0 0.0 0.0 0.0 0.0
0.0 0.0 0.0 0.0 0.0 0.0 4.7018493e-05 -0.00012696431
-7.4040974e-05 3.3065942e-05 -6.285662e-05 -5.6179488e-05 -1.7934688e-05 6.5502226e-09 -2.8627758e-06 -3.7936054e-05
-2.464004e-06 -4.2710722e-05 -4.5086363e-05 -2.212141e-05 -1.5434334e-05 -3.900531e-05 3.7306274e-06 -1.4569987e-05
-4.412725e-06 -1.7099048e-05 -4.737967e-05 -3.031879e-06 5.850283e-06 8.697118e-06 2.7540411e-06 -1.8092353e-05
1.2230742e-05 3.446913e-06 1.0656284e-05 3.059218e-05 -4.6411838e-06 -1.5549014e-05 6.96775e-06 -1.3925881e-05
-2.2884972e-06 -4.0128093e-06 -1.5817212e-05 -1.663227e-05 -1.2024663e-05 -9.235916e-07 -4.212656e-06 1.1198491e-05
-3.881298e-06 -6.165416e-06 3.7835114e-05 -6.084687e-06 1.1825532e-05 6.955488e-05 -1.4216588e-05 1.4235447e-05
2.6206213e-05 -3.0895221e-06 0.0 0.0 0.0 0.0 0.0 0.0
0.0 0.0 0.0 0.0 0.0 3.6007386e-05 1.8795525e-05 6.837234e-07
-9.0124895e-06 -3.208741e-05 8.860542e-08 -2.4818462e-05 -3.610028e-05 -1.8470411e-06 -3.457592e-05 7.864219e-06
-4.719033e-06 -4.5012228e-05 -8.025245e-06 -8.379731e-06 -1.573841e-05 -5.3767203e-06 -3.7335998e-05 -3.5396337e-05
-1.0305023e-05 -2.9039666e-05 7.0403125e-06 -1.18210355e-05 9.41827e-06 4.021858e-06 -1.4328188e-05 9.138122e-06
1.9378533e-06 2.50064e-06 1.2314494e-05 1.3814164e-05 -8.9264795e-06 -2.7562979e-05 1.3307817e-06 2.482124e-07
-1.9774272e-05 -1.9364588e-06 -5.5598543e-06 -1.41122855e-05 -7.4298555e-07 1.086032e-06 -3.1994127e-06 3.6899419e-06
5.9145214e-06 6.8853074e-06 1.1890591e-07 -5.7793977e-06 3.2855274e-05 -4.390941e-06 2.6156372e-06 2.2561473e-05
3.6123968e-06 0.0 0.0 0.0 0.0 0.0 0.0 0.0
0.0 0.0 0.0 0.0 3.7369005e-05 0.00011751043 -1.4678375e-05 1.0652646e-05

exp_avg_sq f4 [64, 63]
00000000: efae 4734 0841 8434 9574 0934 4497 4233
00000010: efb1 1533 0cf8 8c33 8065 e032 6a6a 4333
00000020: cd0d c832 7707 d232 7692 9b32 1552 ef32
00000030: f45b bb32 ed63 ad32 9bae 8633 9e58 3932
00000040: 5d29 3732 7830 0933 f831 1c32 44d0 2032
00000050: 13d4 6a33 a4e2 5032 57d8 0632 d6cc 4e33
00000060: b908 0732 4d3d 0d32 c89c 0f33 7cd7 e631
00000070: 48ae 9831 2806 2933 f356 ea31 a56d e831
00000080: 65cb 4933 8e46 2731 349d 0031 c23f 6033
00000090: 603a 2131 4454 1331 5ef2 1d33 aebb 5730
000000a0: 60a8 da30 bc56 2133 d5f8 3d30 30d4 3431
000000b0: a4a1 3a33 ea8f 2c30 5b8f 6430 8d68 0d33
000000c0: 4927 a530 fd75 1e31 a352 9632 721b 2231
000000d0: 0000 0000 0000 0000 0000 0000 0000 0000
000000e0: 0000 0000 0000 0000 0000 0000 0000 0000
000000f0: 0000 0000 0000 0000 0000 0000 5e00 6f32
00000100: a372 f732 f885 9e31 498f 0231 6e8b 2731
00000110: 0761 3d31 300e 3331 e3e9 7d31 6dda fb30
00000120: e322 bb30 9ed9 e830 c8bc 2331 1c66 2e31
00000130: 50b2 ea30 c14e 3c31 d31f 9230 6927 4e30
00000140: 4bd8 3d31 aada e030 10a2 ce30 26ff 0831
00000150: 1d3b 2630 b9f0 3630 5ffe 4331 a6e9 5230
00000160: 3edc 8030 f091 ee30 8eb3 2530 db48 b92f
00000170: 9d43 e130 e526 5330 04c4 1330 44c8 3d31
00000180: 534e a42f b7ce 262f 0c1a 1a31 5ba7 8c2f
00000190: 0fa0 852f d52f be30 f2f0 7b2e 8099 f22e
000001a0: 3325 e730 2155 692e 0151 002f 1b23 0a31
000001b0: de59 9f2d 6e9f 682e 93ee d630 33ed 802e
000001c0: 58de 182f 6d34 a130 8642 562e 0000 0000
000001d0: 0000 0000 0000 0000 0000 0000 0000 0000
000001e0: 0000 0000 0000 0000 0000 0000 0000 0000
000001f0: 0000 0000 0000 0000 fc23 8533 cb03 b033
00000200: db3b 5632 522f f131 3b21 0432 9248 0432
00000210: d883 1a32 5477 5d32 a0f9 2a32 7d2d d631
00000220: d161 a531 048e 0e32 0fa9 0032 407e 9431
00000230: 0b90 ef31 904b 4131 df3e 3a31 5bcd 1232
00000240: d071 4431 05ab 3031 7c5f e131 b380 cd30
00000250: 5a36 b130 ed7d ea31 e4c0 eb30 cb92 f630
00000260: 0efc f231 4628 bf30 04d9 a630 95e2 f531
00000270: 9e04 ca30 0fc6 8530 24ec dd31 9fb4 f62f
00000280: f36b c42f d692 bb31 4bd3 1830 1e46 2730
00000290: a987 dc31 b91b 2d2f 4f3e b12f 4de7 b231
000002a0: d671 802f 8fd7 432f 4863 e431 61dc 2e2f
000002b0: 79d7 c32f 8c91 b531 b363 b62f ff5d 2630
000002c0: b03b 8331 0653 292f 0000 0000 0000 0000
000002d0: 0000 0000 0000 0000 0000 0000 0000 0000
000002e0: 0000 0000 0000 0000 0000 0000 0000 0000
000002f0: 0000 0000 054c 0433 2a57 4e33 c053 0532
00000300: c4c9 6131 5f55 0832 e090 9531 3c37 b031
00000310: 2a8b c631 051d 9a31 a52f 4931 2a72 6431
00000320: dfd7 8231 06ae a831 d03d 4731 b5b2 a431
00000330: e550 0631 1377 1331 f236 9931 4f3f 0c31
00000340: bd90 2a31 1d02 a031 abdb ab30 204e 8230
00000350: 0f83 3b31 159d 5d30 35e3 8d30 f95e b031
00000360: 5cd8 3230 166b 3b30 fbb5 6031 a85f b530
00000370: 31bb 1730 a5ba a931 314d bb2f 2912 552f
00000380: 8d3d 6c31 dd25 d12f 26e7 c52f 84e6 7f31
00000390: 91e1 ef2e bf2f 5c2f 6418 7331 d559 3d2f
000003a0: 273c da2e 60d8 8431 69c7 e12e 8a60 f12e
000003b0: 960e 4131 261e 312f 1a1d a42f 3eed b730
000003c0: c156 832e 0000 0000 0000 0000 0000 0000
000003d0: 0000 0000 0000 0000 0000 0000 0000 0000
000003e0: 0000 0000 0000 0000 0000 0000 0000 0000
000003f0: db46 9d33 a131 bf33 0e4a b132 2b80 f631
1.859696e-07 2.4634232e-07 1.2801532e-07 4.530672e-08 3.4853596e-08 6.5643775e-08 2.6123189e-08 4.549876e-08
2.328934e-08 2.4450612e-08 1.8110978e-08 2.7860589e-08 2.181148e-08 2.0185292e-08 6.271622e-08 1.07885665e-08
1.0661407e-08 3.194188e-08 9.091757e-09 9.36058e-09 5.467525e-08 1.2158726e-08 7.8490165e-09 4.814941e-08
7.8600175e-09 8.221218e-09 3.3437374e-08 6.7183787e-09 4.4435957e-09 3.9353978e-08 6.8201813e-09 6.764554e-09
4.6983946e-08 2.4341804e-09 1.8715811e-09 5.221205e-08 2.3461766e-09 2.1439215e-09 3.6774843e-08 7.8483253e-10
1.5909443e-09 3.7564618e-08 6.911141e-10 2.6314062e-09 4.345351e-08 6.277775e-10 8.3149637e-10 3.292421e-08
1.2016496e-09 2.3059095e-09 1.7499877e-08 2.3589704e-09 0.0 0.0 0.0 0.0
0.0 0.0 0.0 0.0 0.0 0.0 0.0 1.39117144e-08
2.8806715e-08 4.6136357e-09 1.8998938e-09 2.4380955e-09 2.7558273e-09 2.6055993e-09 3.6949295e-09 1.8324734e-09
1.3615956e-09 1.6942072e-09 2.3826932e-09 2.5378375e-09 1.707642e-09 2.7402367e-09 1.0631943e-09 7.499837e-10
2.7626068e-09 1.6360293e-09 1.5034534e-09 1.993564e-09 6.0474453e-10 6.65533e-10 2.8520828e-09 7.672959e-10
9.375822e-10 1.7358257e-09 6.0281813e-10 3.370307e-10 1.6390121e-09 7.6816625e-10 5.3756843e-10 2.7616958e-09
2.988708e-10 1.5171052e-10 2.2424755e-09 2.5584765e-10 2.4306288e-10 1.3837914e-09 5.7284795e-11 1.1032153e-10
1.6818035e-09 5.3053676e-11 1.167031e-10 2.0101598e-09 1.8116116e-11 5.2892295e-11 1.5638356e-09 5.862901e-11
1.3903312e-10 1.1729192e-09 4.871705e-11 0.0 0.0 0.0 0.0 0.0
0.0 0.0 0.0 0.0 0.0 0.0 6.1998406e-08 8.1963286e-08
1.2470049e-08 7.019403e-09 7.690967e-09 7.699912e-09 8.993958e-09 1.2891025e-08 9.9520605e-09 6.233391e-09
4.8132525e-09 8.2977785e-09 7.48902e-09 4.32172e-09 6.9721913e-09 2.8128149e-09 2.71023e-09 8.545011e-09
2.8586449e-09 2.5708584e-09 6.559217e-09 1.4952292e-09 1.2893893e-09 6.8246124e-09 1.7153323e-09 1.7940577e-09
7.0717823e-09 1.3908525e-09 1.2139769e-09 7.156198e-09 1.4698747e-09 9.733315e-10 6.4587926e-09 4.4875478e-10
3.5728895e-10 5.4591096e-09 5.5597543e-10 6.085389e-10 6.4182655e-09 1.5744107e-10 3.2240385e-10 5.2067777e-09
2.336395e-10 1.7811728e-10 6.6469603e-09 1.5903502e-10 3.5623396e-10 5.28434e-09 3.3176448e-10 6.0524025e-10
3.8193875e-09 1.5399956e-10 0.0 0.0 0.0 0.0 0.0 0.0
0.0 0.0 0.0 0.0 0.0 3.0802784e-08 4.8042388e-08 7.7606614e-09
3.28565e-09 7.935653e-09 4.352941e-09 5.1285536e-09 5.7783796e-09 4.485289e-09 2.9276432e-09 3.3243261e-09
3.8080397e-09 4.9092277e-09 2.8993448e-09 4.793345e-09 1.954555e-09 2.1459001e-09 4.4591326e-09 2.0408668e-09
2.482053e-09 4.656853e-09 1.2504321e-09 9.480949e-10 2.728658e-09 8.062256e-10 1.0323676e-09 5.1330713e-09
6.506349e-10 6.818238e-10 3.2699734e-09 1.319667e-09 5.5199495e-10 4.9397664e-09 3.406995e-10 1.9378689e-10
3.4377508e-09 3.8043782e-10 3.5998332e-10 3.7238417e-09 1.090853e-10 2.0025846e-10 3.5375018e-09 1.7221365e-10
9.9241775e-11 3.8663046e-09 1.0267238e-10 1.097656e-10 2.8093488e-09 1.6108767e-10 2.9852104e-10 1.3382431e-09
5.972601e-11 0.0 0.0 0.0 0.0 0.0 0.0 0.0
0.0 0.0 0.0 0.0 7.323771e-08 8.903158e-08 2.0639188e-08 7.1741133e-09

exp_avg f4 [64]
00000000: 5289 0236 4450 4e36 6bde 4cb4 ac09 37b6
00000010: 1423 91b7 46fc 9f36 dd6b 8c38 a635 91b7
00000020: 7a35 0b39 2981 81b7 4844 58b7 35c3 13b7
00000030: e417 7bb7 f123 61b8 e921 7538 f2a9 93b7
00000040: 1c0d 8db7 a8f0 3937 8583 a3b4 3d10 d4b6
00000050: a2b1 80b6 9c4a bd36 d413 af36 b608 65b7
00000060: 3cdb 22b7 63e2 1eb8 1d9c beb6 4efa fdb7
00000070: 0bcc f0b7 bb1a 27b7 2f50 1f37 afe6 67b8
00000080: a34b 8b37 b1ab d636 ba33 c6b6 7d20 c738
00000090: 031f c8b5 6926 b7b6 4b4d cd37 6cf0 44b7
000000a0: 4667 9ab7 4871 9d36 8751 c037 80f8 7cb6
000000b0: e887 08b8 1335 dcb8 73e6 3d35 30e1 8e37
000000c0: 2a83 9638 7763 9537 a74d 0f37 6cd0 1235
000000d0: cf50 2cb7 0fd5 4b37 d3a8 f336 9de3 a6b7
000000e0: d733 6036 236f 72b8 1659 c737 fec5 3e37
000000f0: f5ef 1cb8 89bc 6538 64ff 0738 9b96 2336
1.945144e-06 3.0743113e-06 -1.9079896e-07 -2.7274755e-06 -1.7301682e-05 4.7679378e-06 6.695811e-05 -1.7310329e-05
0.00013275995 -1.5438143e-05 -1.2890501e-05 -8.807333e-06 -1.4966328e-05 -5.3677653e-05 5.8444133e-05 -1.7602903e-05
-1.6814614e-05 1.1082891e-05 -3.045681e-07 -6.3199827e-06 -3.8353764e-06 5.6413246e-06 5.2177147e-06 -1.3651492e-05
-9.706997e-06 -3.7880975e-05 -5.6806152e-06 -3.0276507e-05 -2.8705244e-05 -9.960199e-06 9.495808e-06 -5.5289533e-05
1.6605312e-05 6.3976845e-06 -5.9068816e-06 9.495111e-05 -1.4910187e-06 -5.4582965e-06 2.4473897e-05 -1.1738488e-05
-1.8406321e-05 4.6921523e-06 2.2926148e-05 -3.7695572e-06 -3.25515e-05 -0.00010500303 7.0743334e-07 1.703258e-05
7.1769886e-05 1.7808501e-05 8.541544e-06 5.469253e-07 -1.0270814e-05 1.21493495e-05 7.261618e-06 -1.9894733e-05
3.3408776e-06 -5.78008e-05 2.3764132e-05 1.1370981e-05 -3.7416776e-05 5.477344e-05 3.242436e-05 2.4376557e-06

exp_avg_sq f4 [64]
00000000: b355 e333 d932 b131 328f a432 4cdf 3f32
00000010: fc2f a132 9591 b530 464b b132 090b 5c31
00000020: 001f 0b34 f1fd 0732 aa66 0133 2392 db30
00000030: dd7e b631 d00d 1133 9b88 df32 90fb 0432
00000040: b5a9 5232 f691 b131 6f1e 4333 3e7d fa31
00000050: ae9f 4632 930a cd31 6a46 0c32 f711 3232
00000060: 06e0 0832 a575 bd33 3497 bc31 2939 2532
00000070: 58ef 8732 6632 d632 68e9 0533 d279 9d33
00000080: 7050 9133 1f55 b231 ce78 f731 f256 cd33
00000090: 20b7 4932 52ec 1332 7bb1 0a33 846d a032
000000a0: c9c4 1233 b332 1032 84d2 1e33 445d 6231
000000b0: 375a ce32 7c09 b533 2aab 3732 e7c2 b331
000000c0: 51fe ff33 cb56 7732 f6c6 5232 8a6b a82f
000000d0: d460 0732 dc36 e532 8618 8632 1a99 7332
000000e0: 3ad1 9032 67dd 9633 9c0f 0833 508c bb31
000000f0: 5041 9433 919a 4633 b2fc 1732 7059 5832
1.05861e-07 5.1571587e-09 1.915723e-08 1.1168435e-08 1.8764688e-08 1.321086e-09 2.0639742e-08 3.2020486e-09
1.2956662e-07 7.915774e-09 3.0128525e-08 1.5975882e-09 5.31132e-09 3.3773006e-08 2.6022738e-08 7.74061e-09
1.2262196e-08 5.167972e-09 4.5429655e-08 7.290196e-09 1.1561424e-08 5.9674874e-09 8.165083e-09 1.0365048e-08
7.967179e-09 8.822398e-08 5.48871e-09 9.617261e-09 1.582491e-08 2.4935797e-08 3.1178757e-08 7.333041e-08
6.76672e-08 5.190159e-09 7.20238e-09 9.561872e-08 1.1741378e-08 8.610259e-09 3.2292046e-08 1.8676253e-08
3.417225e-08 8.393431e-09 3.6978705e-08 3.2940344e-09 2.4022581e-08 8.4301945e-08 1.069092e-08 5.2317435e-09
1.1920623e-07 1.4397027e-08 1.2268847e-08 3.0635433e-10 7.88005e-09 2.6684056e-08 1.5610805e-08 1.4179273e-08
1.6858952e-08 7.025192e-08 3.1679164e-08 5.458368e-09 6.903667e-08 4.6241045e-08 8.846813e-09 1.25931905e-08

exp_avg f4 [32, 64]
00000000: e528 5db6 e8fe b3b4 bb4d dc35 dd30 bdb5
00000010: b2f0 0bb6 02f9 8f36 d846 ad36 8f37 8d36
00000020: 5c96 d634 11e3 1636 3a30 ae36 6b94 51b6
00000030: f6d9 7536 3424 3636 e0cd 5537 dc5d d8b6
00000040: b55d 06b6 be40 05b3 cd25 3bb6 cbb3 3036
00000050: 8535 cb36 fa35 15b5 4e86 56b5 44c7 98b5
00000060: c0ca 2936 81b3 a735 0c4f 5336 0f39 ac36
00000070: 5246 fab6 51ff ceb5 5de8 e5b5 8e0c 34b7
00000080: 77d9 1535 5f50 9ab6 e996 b5b6 e645 06b7
00000090: b133 cc35 59f5 70b6 f956 56b6 6ba5 1e36
000000a0: 9f5b feb6 370c b3b6 304c 1835 8609 b035
000000b0: 692a a136 2629 72b6 7657 2bb6 5ba3 dcb5
000000c0: e3b5 cab5 8ef0 1035 f22c a0b4 5d37 77b6
000000d0: 131f 3235 3e38 d5b5 6018 d6b6 b94a f8b6
000000e0: 2d76 e9b3 63b0 e3b5 ccb6 7a36 e2ba b2b6
000000f0: fc19 5936 ebae b036 a34d 20b7 2246 0735
00000100: 5980 b4b7 77af 23b5 e59a 4237 e450 40b7
00000110: 75e4 8ab7 568d e037 c094 1438 b824 fb37
00000120: 0d17 c534 36c6 7b37 f256 1a38 64da ceb7
00000130: afb2 0238 b5bc c737 c0e4 c738 0ef3 47b8
00000140: 6dfd 71b7 4c40 9436 6e3c beb7 e282 ac37
00000150: 23e1 3b38 a395 c5b6 d066 00b7 a83a 9eb6
00000160: d059 8b37 449c 0737 badc c337 edbf 2538
00000170: 2fc1 5db8 0087 83b7 ad3d f6b6 8536 a8b8
00000180: a21e d336 51c1 0ab8 1265 24b8 0775 75b8
00000190: 88f2 e436 1372 e3b7 f77c cfb7 e9a6 b237
000001a0: 61dc 6ab8 61e6 21b8 71aa 6736 9bea da36
000001b0: ad63 0938 6334 fdb7 c252 8eb7 2185 12b7
000001c0: 1008 5cb7 9de7 3a36 0b88 b9b5 b108 ebb7
000001d0: f772 dd35 a53d feb6 ee27 36b8 9f51 56b8
000001e0: cf97 bcb5 b128 69b7 0e6b d437 14e7 2eb8
000001f0: c9d0 e137 c8d4 1438 f080 98b8 eaac 7d36
00000200: 26d1 b137 d0d7 8b35 1432 3db7 df32 3e37
00000210: 152f 8337 65e5 ddb7 ac22 12b8 9b1b f3b7
00000220: a3cb a5b4 f8b2 74b7 1004 16b8 95a7 c537
00000230: 9ea9 fcb7 4009 bfb7 225c c3b8 e9ca 4038
00000240: 9d24 6637 919e 8bb6 f23e b637 09d5 a7b7
00000250: a472 37b8 4652 aa36 0dbd de36 d98e ae36
00000260: 2118 88b7 01e3 00b7 4e99 c0b7 8aa8 1fb8
00000270: 5021 5738 bc02 7937 36b9 fb36 c74b a238
00000280: c8cd c7b6 601e 0638 4cc3 2038 28f8 6f38
00000290: 8ebf e6b6 a816 da37 43b4 c737 15ba aab7
000002a0: 561c 6238 7fb0 1b38 b619 6eb6 dc86 d9b6
000002b0: 1c2d 06b8 6fc9 f037 3216 8d37 408c 0a37
000002c0: 1022 5637 2418 4db6 fe6b cd35 afa5 e237
000002d0: 10eb 08b6 cb0a 0437 3e38 3238 4c7b 5038
000002e0: 972c a835 64db 5b37 3e30 d3b7 367e 2938
000002f0: 1dfb d6b7 894a 13b8 306a 9338 407e 6bb6
00000300: de04 8436 ac61 2533 6a73 0eb6 f93b 0f36
00000310: a86a 5a36 df40 a0b6 112c d8b6 3074 bcb6
00000320: 8267 15b4 c173 36b6 7c31 e6b6 6919 9f36
00000330: 61e8 c1b6 8291 95b6 34c5 92b7 4c3f 1837
00000340: 9e19 3e36 8985 5ab5 4bc1 9236 a80f 7db6
00000350: 61ab 09b7 79bc b035 5571 eb35 c93e 4635
00000360: 7236 50b6 63f2 cbb5 f2ea 8db6 3758 fab6
00000370: 22f4 2537 723e 4c36 61b5 ba35 7af9 7e37
00000380: 15e1 9eb5 3905 d336 167d f236 16e7 3437
00000390: 5c25 a5b5 cb34 ae36 3886 9d36 2fa8 85b6
000003a0: eac7 3237 cfbb f636 6bf5 04b5 5a72 9ab5
000003b0: 35ad cbb6 15b7 c336 7bbe 5236 2cae ed35
000003c0: 2813 2336 7f55 ccb4 9101 7034 f738 b336
000003d0: 15dd 07b4 317b b135 54cb 0637 a0ad 2037
000003e0: 0979 a834 26ee 3536 df2e 97b6 d268 0337
000003f0: 5715 acb6 391f d5b6 644c 6637 a6f2 42b5
-3.295537e-06 -3.3526817e-07 1.64139e-06 -1.4095818e-06 -2.0852717e-06 4.2907204e-06 5.164049e-06 4.2085953e-06
3.9970007e-07 2.2483912e-06 5.1912184e-06 -3.1229818e-06 3.6634715e-06 2.7141186e-06 1.2743723e-05 -6.4482283e-06
-2.00221e-06 -3.102536e-08 -2.7887174e-06 2.6330697e-06 6.056102e-06 -5.558537e-07 -7.991665e-07 -1.1382876e-06
2.5300978e-06 1.2494712e-06 3.1487461e-06 5.132642e-06 -7.458767e-06 -1.5422503e-06 -1.7129456e-06 -1.0731759e-05
5.582328e-07 -4.598914e-06 -5.4117886e-06 -8.003297e-06 1.5214229e-06 -3.5905598e-06 -3.193911e-06 2.364012e-06
-7.580456e-06 -5.3360377e-06 5.673528e-07 1.3115794e-06 4.803111e-06 -3.6084762e-06 -2.5531895e-06 -1.643882e-06
-1.5103109e-06 5.3994233e-07 -2.9835024e-07 -3.6838094e-06 6.6355386e-07 -1.5886105e-06 -6.3805346e-06 -7.399675e-06
-1.0871404e-07 -1.6964153e-06 3.7359305e-06 -5.3265694e-06 3.2350645e-06 5.265572e-06 -9.554819e-06 5.0393476e-07
-2.1517439e-05 -6.0977567e-07 1.1599365e-05 -1.1462926e-05 -1.6557266e-05 2.6768696e-05 3.5424484e-05 2.993863e-05
3.671088e-07 1.5006915e-05 3.6797435e-05 -2.465881e-05 3.1160827e-05 2.3810522e-05 9.5316675e-05 -4.767166e-05
-1.4423725e-05 4.418229e-06 -2.2677905e-05 2.0564945e-05 4.479395e-05 -5.8884775e-06 -7.653332e-06 -4.7155954e-06
1.6611913e-05 8.0830105e-06 2.3348595e-05 3.951781e-05 -5.2870422e-05 -1.5679281e-05 -7.3385513e-06 -8.021019e-05
6.291856e-06 -3.3081804e-05 -3.9194776e-05 -5.8521542e-05 6.823164e-06 -2.7113629e-05 -2.4734514e-05 2.1296977e-05
-5.599519e-05 -3.859995e-05 3.4520892e-06 6.524218e-06 3.2756176e-05 -3.0184345e-05 -1.6966256e-05 -8.733275e-06
-1.3114899e-05 2.7850976e-06 -1.3823168e-06 -2.801823e-05 1.6499242e-06 -7.5769663e-06 -4.342937e-05 -5.109759e-05
-1.4051274e-06 -1.3897356e-05 2.532222e-05 -4.170004e-05 2.6919313e-05 3.5484118e-05 -7.271941e-05 3.7800587e-06
2.1197437e-05 1.0419117e-06 -1.1276938e-05 1.1336727e-05 1.5638341e-05 -2.6452073e-05 -3.4841403e-05 -2.8980712e-05
-3.088181e-07 -1.4585203e-05 -3.576657e-05 2.3562267e-05 -3.0119725e-05 -2.2773282e-05 -9.315486e-05 4.5965342e-05
1.3717593e-05 -4.1609824e-06 2.1725402e-05 -2.0007154e-05 -4.3737367e-05 5.0759727e-06 6.638124e-06 5.2022338e-06
-1.62237e-05 -7.682248e-06 -2.2959572e-05 -3.806552e-05 5.129102e-05 1.4842193e-05 7.5019443e-06 7.7388766e-05
-5.9546182e-06 3.197638e-05 3.8328857e-05 5.7213154e-05 -6.876834e-06 2.5998175e-05 2.380659e-05 -2.035223e-05
5.390899e-05 3.7119255e-05 -3.547973e-06 -6.4828037e-06 -3.19901e-05 2.870403e-05 1.6818845e-05 8.2580955e-06
1.2763325e-05 -3.0561432e-06 1.530512e-06 2.7018452e-05 -2.0402404e-06 7.870326e-06 4.2490887e-05 4.9705894e-05
1.2529953e-06 1.3104498e-05 -2.5175625e-05 4.0410283e-05 -2.5627722e-05 -3.5116947e-05 7.029285e-05 -3.5091216e-06
3.934473e-06 3.850589e-08 -2.1226829e-06 2.134357e-06 3.2546614e-06 -4.7759236e-06 -6.4424316e-06 -5.6163626e-06
-1.3914362e-07 -2.718749e-06 -6.860295e-06 4.7415274e-06 -5.7789007e-06 -4.4574854e-06 -1.7496386e-05 9.0746435e-06
2.8327117e-06 -8.140565e-07 4.3736413e-06 -3.770905e-06 -8.205739e-06 1.3167875e-06 1.7541848e-06 7.385211e-07
-3.1026107e-06 -1.5195222e-06 -4.2294787e-06 -7.46085e-06 9.891608e-06 3.0434717e-06 1.3910868e-06 1.5197666e-05
-1.1837425e-06 6.288898e-06 7.226724e-06 1.078264e-05 -1.2304331e-06 5.19175e-06 4.6945897e-06 -3.983288e-06
1.0656173e-05 7.353235e-06 -4.953096e-07 -1.1507175e-06 -6.0700354e-06 5.8327664e-06 3.1403313e-06 1.7708567e-06
2.4300043e-06 -3.8060168e-07 2.2352312e-07 5.3412473e-06 -1.2653284e-07 1.3223381e-06 8.034363e-06 9.577168e-06
3.1380503e-07 2.7109722e-06 -4.505607e-06 7.832614e-06 -5.1284837e-06 -6.3515295e-06 1.3726854e-05 -7.262373e-07

exp_avg_sq f4 [32, 64]
00000000: 7678 2c30 24db 632f 1608 db2f bcde 912f
00000010: 4c61 1f30 a9eb 7730 30ea 0430 97e6 cc2e
00000020: 555c 322f 1999 0f30 9712 912f 396c 8430
00000030: c000 1c30 5c1f ae2f e974 5830 4c34 5f30
00000040: 29c3 892f 1360 922f 583f fb2f b0ac 982f
00000050: ce7c 0a30 5ff3 c62f 767b 3b30 3732 0c30
00000060: ca3c d92f 90e5 0330 8f24 9c2f d3bb bc2f
00000070: aeb1 e22f f044 2f30 f74b cb2f 669b 6f30
00000080: ff6f c02f 743c 2730 c110 be2f 4cad ab2f
00000090: 590d 5d2f 5861 502f a609 472f 8b5d 1730
000000a0: 412d 8530 d44f ed2f 684b a92f ac8f ad2f
000000b0: b479 892f b0da 0330 3154 912f bc50 0e30
000000c0: f8d4 302f 6ca6 8a2f 56a7 3a2f 4317 0730
000000d0: 86d2 0830 eb2c 3930 855a 1630 6483 aa2f
000000e0: a8f8 ad2f 0cfc 0230 84d7 a82f 2117 ac2f
000000f0: 6a4e 4a30 c9fe 2930 1529 7230 d6c6 262f
00000100: 4621 ef32 7f2e 1e32 e050 9832 f8ef 4632
00000110: 86f1 de32 52e6 2a33 cb70 bb32 5e1a 9231
00000120: 6a09 fa31 af07 c732 dafd 4e32 290a 3b33
00000130: bcdc da32 61fc 6e32 0aa0 1b33 910e 2233
00000140: e3f1 4832 62c9 4a32 c472 a932 2774 5b32
00000150: 1a9e c432 3d0f 8f32 ced0 fb32 893a bf32
00000160: ccef 9732 b54d b932 cc0c 5d32 956e 8232
00000170: 128a a132 2d0c f632 0d2e 9032 3f1e 2733
00000180: ee44 8632 c4e3 e832 40ec 8732 0471 7c32
00000190: 6b2d 1932 3ca0 1132 aa6c 0e32 50dc d132
000001a0: e73e 3833 cf7c a232 9246 6932 ef28 6432
000001b0: e216 4432 afdb b732 0c9f 4932 1b71 c632
000001c0: 9f27 f931 74ed 4432 fdb0 0532 1d60 bb32
000001d0: 9799 c132 c36a 0133 f3c7 d332 f535 7332
000001e0: 6ea8 7732 d036 b332 a3a7 7332 8412 6c32
000001f0: cd55 0d33 2967 ed32 efcc 2e33 8086 f131
00000200: 3942 ed32 18b9 1c32 c5b9 9532 9cd3 4432
00000210: 15e4 da32 6925 2833 5df2 b832 5ac1 8f31
00000220: 3464 f831 cdd6 c432 f8e3 4b32 bf85 3733
00000230: fad2 d832 daae 6d32 3a4b 1933 9258 1f33
00000240: c132 4532 796e 4732 2352 a732 9917 5932
00000250: 1abd c232 c6e9 8b32 7f76 f832 5dc7 bd32
00000260: 2509 9532 35cd b732 e900 5a32 2d21 8132
00000270: ce78 9e32 8c04 f332 ba2f 8f32 fe01 2433
00000280: 47b5 8532 a1cf e632 8e09 8532 ca41 7932
00000290: c9b3 1632 752c 0e32 72bf 0c32 e08b cf32
000002a0: 9c52 3433 6bfc 9e32 714d 6532 6abc 6032
000002b0: d5a5 4032 297d b432 bce7 4632 2313 c332
000002c0: d7a2 f631 4b7b 4232 1a4a 0432 4cd0 b832
000002d0: ed1f be32 cc8a 0033 c094 d132 88c8 6f32
000002e0: 0856 7232 ada1 ae32 3d63 6f32 cb4b 6732
000002f0: a27b 0c33 53bf e832 897e 2b33 0ac9 ed31
00000300: f5be 7430 c12b a42f 3c2a 2830 1270 d02f
00000310: 006b 6f30 a688 b730 2c19 4830 7b65 1d2f
00000320: 53e8 842f ba0d 5330 4774 da2f 38f9 c930
00000330: 1adf 6630 b532 f82f a7c8 a530 4680 ad30
00000340: c373 d82f acd0 d72f 1465 3430 0796 e42f
00000350: 0fb9 5330 1be0 1930 c6f1 8730 0f4b 4930
00000360: 9d31 2430 e19d 3e30 442e ea2f 713c 0a30
00000370: 280a 2e30 4c29 8330 3eb9 1830 71ec b330
00000380: 7b2a 0930 5432 7630 deb9 1130 b9dc 0630
00000390: 272d a42f 6cb1 9c2f 9a69 9b2f 7772 5c30
000003a0: 9198 c530 2939 2f30 5296 f62f cb6d f42f
000003b0: 070a d02f de28 4530 3459 d62f 9362 5630
000003c0: a517 842f c046 d32f 5409 892f b9f0 4b30
000003d0: a27a 4d30 7e13 8630 8e07 6530 8f66 0430
000003e0: e46e 0430 be30 4030 f911 0430 d46c fc2f
000003f0: e2f6 9230 6189 7d30 c2b3 bd30 e0bc 7f2f
6.274442e-10 2.0723384e-10 3.9841613e-10 2.653361e-10 5.798213e-10 9.019297e-10 4.835412e-10 9.317807e-11
1.6221809e-10 5.224066e-10 2.6388555e-10 9.635023e-10 5.6753535e-10 3.1672698e-10 7.874648e-10 8.1201246e-10
2.5058824e-10 2.662551e-10 4.5701642e-10 2.777134e-10 5.0381466e-10 3.6188916e-10 6.820565e-10 5.1003063e-10
3.9515263e-10 4.798375e-10 2.840221e-10 3.4330458e-10 4.123541e-10 6.3762595e-10 3.697946e-10 8.716853e-10
3.5004175e-10 6.0840155e-10 3.4572703e-10 3.1227854e-10 2.0104575e-10 1.8952073e-10 1.8102372e-10 5.506641e-10
9.689886e-10 4.316677e-10 3.07945e-10 3.1570602e-10 2.500663e-10 4.7968296e-10 2.6435168e-10 5.177403e-10
1.6082768e-10 2.5220304e-10 1.6976051e-10 4.914577e-10 4.9775684e-10 6.736644e-10 5.469832e-10 3.1016179e-10
3.1645198e-10 4.7651905e-10 3.0712155e-10 3.1303052e-10 7.3598605e-10 6.1843913e-10 8.809747e-10 1.5168253e-10
2.7838393e-08 9.207382e-09 1.7731907e-08 1.1579679e-08 2.5954034e-08 3.9790685e-08 2.1820957e-08 4.252157e-09
7.277028e-09 2.3170143e-08 1.2048497e-08 4.354857e-08 2.5478919e-08 1.3910808e-08 3.6234304e-08 3.7731812e-08
1.1696531e-08 1.1803737e-08 1.9726379e-08 1.2773888e-08 2.28893e-08 1.665432e-08 2.93152e-08 2.2261945e-08
1.768776e-08 2.1572172e-08 1.2866803e-08 1.5184279e-08 1.8805654e-08 2.8643706e-08 1.6784748e-08 3.8910226e-08
1.5630999e-08 2.711193e-08 1.5823503e-08 1.4694027e-08 8.916099e-09 8.476544e-09 8.290195e-09 2.4430989e-08
4.2898048e-08 1.8916039e-08 1.3578431e-08 1.3280654e-08 1.14139045e-08 2.1403904e-08 1.1735903e-08 2.3101668e-08
7.251358e-09 1.1462692e-08 7.781861e-09 2.1813372e-08 2.2538002e-08 3.0132252e-08 2.465456e-08 1.415673e-08
1.4415589e-08 2.0863268e-08 1.4182578e-08 1.3741218e-08 3.2907156e-08 2.7637343e-08 4.0698918e-08 7.029314e-09
2.7620546e-08 9.1224805e-09 1.7430361e-08 1.1456816e-08 2.548226e-08 3.9149572e-08 2.1530633e-08 4.1838293e-09
7.2291417e-09 2.2915083e-08 1.1867989e-08 4.272965e-08 2.524165e-08 1.3834972e-08 3.5691507e-08 3.7100627e-08
1.1478449e-08 1.1608443e-08 1.947871e-08 1.2636428e-08 2.2670566e-08 1.6288038e-08 2.8924886e-08 2.2093156e-08
1.7350041e-08 2.1397321e-08 1.2689477e-08 1.5032663e-08 1.8448556e-08 2.829099e-08 1.6669095e-08 3.8186037e-08
1.5565673e-08 2.6869943e-08 1.5487583e-08 1.4508666e-08 8.7720275e-09 8.275596e-09 8.192602e-09 2.416158e-08
4.198465e-08 1.8508407e-08 1.33471625e-08 1.3081356e-08 1.1213577e-08 2.1011674e-08 1.1577807e-08 2.270969e-08
7.178055e-09 1.132032e-08 7.70026e-09 2.1515142e-08 2.213343e-08 2.9928557e-08 2.4398446e-08 1.39572265e-08
1.4105815e-08 2.0329788e-08 1.3934195e-08 1.3463203e-08 3.2708733e-08 2.7095359e-08 3.9929123e-08 6.9204633e-09
8.903805e-10 2.9862515e-10 6.117806e-10 3.791461e-10 8.709975e-10 1.335384e-09 7.279535e-10 1.431512e-10
2.4175736e-10 7.678086e-10 3.973659e-10 1.4695507e-09 8.399056e-10 4.5146967e-10 1.2062359e-09 1.2623864e-09
3.9372425e-10 3.9256542e-10 6.562726e-10 4.157956e-10 7.7024337e-10 5.597955e-10 9.891259e-10 7.323004e-10
5.9733357e-10 6.9345957e-10 4.2597226e-10 5.029e-10 6.3315264e-10 9.543242e-10 5.5560523e-10 1.3091165e-09
4.990068e-10 8.95658e-10 5.3014826e-10 4.906258e-10 2.986351e-10 2.85023e-10 2.826937e-10 8.01982e-10
1.4376998e-09 6.374586e-10 4.4853948e-10 4.4461354e-10 3.7842104e-10 7.172626e-10 3.8989756e-10 7.799283e-10
2.402746e-10 3.8430947e-10 2.4926783e-10 7.419306e-10 7.475284e-10 9.755323e-10 8.332045e-10 4.8167065e-10
4.8178905e-10 6.991846e-10 4.804686e-10 4.591586e-10 1.0693066e-09 9.223609e-10 1.380265e-09 2.3259217e-10

exp_avg f4 [32]
00000000: fb8c fdb5 4fc6 68b7 8cdc 4a37 3371 5f36
00000010: 3357 33b5 514e ef36 2d1a 31b6 66fe 04b7
00000020: 41cd 9f36 27b0 aab6 53f1 f8b6 ecaa 9136
00000030: 2540 4335 459a 3db5 0d09 5b36 a275 2c36
00000040: 2a2b 8536 3226 1a37 e4d8 5fb7 7fb0 1736
00000050: 0430 0537 53f6 8fb6 9ba0 d336 2b80 24b6
00000060: aa73 d3b6 31be 88b6 5b67 7b36 ae4e 2e36
00000070: 4351 f2b6 db2b 7cb6 db9c ee36 fba4 0435
-1.8891e-06 -1.387445e-05 1.2091488e-05 3.329548e-06 -6.680959e-07 7.1318723e-06 -2.6390292e-06 -7.927045e-06
4.762464e-06 -5.0869016e-06 -7.41907e-06 4.3412347e-06 7.2736503e-07 -7.063248e-07 3.2638811e-06 2.5698469e-06
3.968734e-06 9.188008e-06 -1.3342335e-05 2.2603488e-06 7.938597e-06 -4.290408e-06 6.306987e-06 -2.4512508e-06
-6.301755e-06 -4.075257e-06 3.7462075e-06 2.5973818e-06 -7.221622e-06 -3.7576453e-06 7.111213e-06 4.941391e-07

exp_avg_sq f4 [32]
00000000: 4f11 0f32 83e8 c634 7665 c434 6f1d 5732
00000010: 7455 fa2f f88a 2134 8298 ff32 9cbd e633
00000020: 6fbf 3033 a705 e032 d4e1 e433 0b45 9133
00000030: f180 e530 f49a 6631 1723 8633 1ed9 2e32
00000040: e082 ac33 1369 b034 0bed eb34 4fff 9231
00000050: c3f1 0634 77d7 8d33 c750 c233 08c8 8932
00000060: 6ec9 3933 b1d7 4233 a458 ca32 a2bb c832
00000070: e9bf 0734 0bca 4c33 cd16 f033 7f3d 0e32
8.327631e-09 3.7049548e-07 3.6581667e-07 1.25213395e-08 4.5535453e-10 1.504485e-07 2.975526e-08 1.0744699e-07
4.11523e-08 2.6079602e-08 1.0658155e-07 6.7646475e-08 1.669859e-09 3.3557486e-09 6.246244e-08 1.01775e-08
8.03318e-08 3.2859006e-07 4.3944632e-07 4.2781845e-09 1.2567675e-07 6.605017e-08 9.048522e-08 1.6039863e-08
4.325687e-08 4.5365315e-08 2.3556204e-08 2.336839e-08 1.2642671e-07 4.768121e-08 1.1180018e-07 8.27947e-09

exp_avg f4 [64, 32]
00000000: f44f 4935 ffc6 4b34 8ea8 8f33 68a7 2234
00000010: 2afc 9db5 c927 e834 1d85 0eb4 d16d 0eb5
00000020: 6057 6e35 cb6a 9735 566b 0035 841b 30b4
00000030: c899 a3b4 73d4 58b5 4d99 6f35 b07b cdb4
00000040: 0d19 d934 df21 dc32 b43e b334 138b e4b4
00000050: 6046 5ab5 388f fbb4 f2e5 1c35 5590 f334
00000060: 5ec3 93b3 3c59 6434 5fe7 82b3 3b4c 1c35
00000070: dda9 cd34 c007 7d35 c195 e033 19f2 4333
00000080: 976b e235 9ab3 e234 64a2 0f34 934d bb34
00000090: d214 31b6 0cfc 8235 e0de 9eb4 0e66 a1b5
000000a0: 97fb 0436 ac29 2836 fa4e 8f35 f8c6 c2b4
000000b0: ee8a 37b5 526b f3b5 0abc 0536 d4a6 61b5
000000c0: 27ae 7635 8eac 6b33 f1a0 4835 1d8a 80b5
000000d0: b1c4 f2b5 c431 8eb5 4f1d ad35 15aa 8835
000000e0: 62cd 20b4 3a0d ff34 2202 11b4 6ed2 af35
000000f0: 1da0 6235 c210 0d36 c360 7b34 8171 c733
00000100: 8882 64b6 fe3d 6ab5 2b88 9cb4 c4cb 36b5
00000110: 1adf b336 68d2 04b6 f757 1a35 a53f 2336
00000120: 1ec7 87b6 d7fd abb6 9ebb 11b6 943d 4635
00000130: 2ec6 bd35 2c4f 7736 27b9 88b6 96cc e935
00000140: 6aa0 f9b5 01c5 e5b3 ccff cbb5 d783 0336
00000150: 747e 7836 acbe 0f36 3c29 31b6 a673 0ab6
00000160: 9c11 a834 552c 84b5 385d 9e34 ba9a 31b6
00000170: 5d71 e9b5 46c6 8fb6 0ece 02b5 f321 5eb4
00000180: 3136 0c36 6893 0c35 b61b 2d34 5903 e334
00000190: 1299 5ab6 01fe a035 a312 c3b4 529c c5b5
000001a0: 67ca 2336 b63b 5036 2f26 b135 6d23 f4b4
000001b0: 6e15 5fb5 2847 16b6 2817 2536 d760 8cb5
000001c0: 5477 9635 8e3a 8333 8b94 7935 5cd9 9db5
000001d0: e575 16b6 78fe adb5 3361 d535 15ba a835
000001e0: edde 45b4 6c06 1d35 aa69 36b4 28c7 d735
000001f0: 1466 8c35 45bf 2e36 f387 9834 6a21 fa33
00000200: 438e 24b6 2141 26b5 c061 62b4 32ed 06b5
00000210: 4859 8136 546e bfb5 142d e534 bdf3 eb35
00000220: 8610 43b6 224b 76b6 c8b8 d1b5 4bac 0d35
00000230: 991f 8835 2aad 3136 831e 44b6 c365 a635
00000240: e07c b4b5 f9d0 a9b3 0f02 92b5 3a8f bc35
00000250: 02b9 3136 b907 d035 660d feb5 7818 c7b5
00000260: f0cc 6d34 a768 3cb5 52a6 5634 3d56 00b6
00000270: 618f a6b5 c2ff 4db6 9030 bbb4 4e53 1ab4
00000280: bf72 b4b5 0b8a b6b4 9271 eab3 157a 95b4
00000290: 3f7d 0d36 6315 51b5 d910 7d34 ca09 8135
000002a0: 05f7 d4b5 9689 06b6 9567 65b5 534c 9a34
000002b0: cb9a 1435 9071 c235 c5f8 d5b5 ae1f 3435
000002c0: ff10 46b5 50e4 48b3 ccfd 1fb5 53d5 4d35
000002d0: 4b33 c235 40a5 6435 1ceb 8ab5 31c2 5ab5
000002e0: ea67 0334 5f5d ccb4 39d1 e633 e6d9 8cb5
000002f0: 73cb 35b5 9f73 e1b5 5ae9 4ab4 42a7 9eb3
00000300: 416f 87b6 9505 89b5 c65b b2b4 2b6e 5cb5
00000310: 4d5a d436 23c8 1cb6 02b1 3b35 a4f0 4036
00000320: e3c2 9fb6 6650 cab6 6121 2cb6 741c 6a35
00000330: f688 dd35 54ec 9136 a5ce a0b6 2886 0836
00000340: ea80 13b6 3beb 07b4 2edb f0b5 9851 1a36
00000350: ae18 9236 ad34 2a36 ac2b 50b6 f8b0 23b6
00000360: 6a13 c334 bb0b 9ab5 8207 b234 a64e 52b6
00000370: 9fc1 08b6 396d a9b6 3bf5 17b5 ccc7 78b4
00000380: be34 6d36 2fe5 6f35 430d 9934 9771 4035
00000390: 7ccb b9b6 9529 0936 507d 23b5 0fac 28b6
000003a0: e79f 8b36 9af2 b036 0c7e 1636 6a57 4db5
000003b0: e738 c1b5 fd6d 7fb6 b1a1 8c36 89d7 eeb5
000003c0: dee2 0036 f7f1 e633 e809 d335 10f5 06b6
000003d0: b1af 7fb6 e2aa 14b6 dfbb 3536 2f34 0f36
000003e0: d2db a9b4 0ab7 8635 43f7 9cb4 ddd4 3736
000003f0: 9d1a ef35 a246 9436 8783 0435 ac62 5834
7.499468e-07 1.8978243e-07 6.689616e-08 1.5148328e-07 -1.1770801e-06 4.3242315e-07 -1.3273207e-07 -5.3058926e-07
8.8789056e-07 1.1281458e-06 4.783991e-07 -1.6401287e-07 -3.0473007e-07 -8.0775425e-07 8.925752e-07 -3.827422e-07
4.0437627e-07 2.5626774e-08 3.338697e-07 -4.25695e-07 -8.131374e-07 -4.68566e-07 5.8449143e-07 4.5367293e-07
-6.880758e-08 2.1266618e-07 -6.095683e-08 5.822546e-07 3.8307817e-07 9.426112e-07 1.0458053e-07 4.5622162e-08
1.6869625e-06 4.2226458e-07 1.337699e-07 3.4887907e-07 -2.6387174e-06 9.75911e-07 -2.9591956e-07 -1.2025137e-06
1.9815977e-06 2.5058207e-06 1.0677315e-06 -3.6280085e-07 -6.837498e-07 -1.8136145e-06 1.9927998e-06 -8.40618e-07
9.1895566e-07 5.487214e-08 7.4740007e-07 -9.576939e-07 -1.808765e-06 -1.0594308e-06 1.2898034e-06 1.018229e-06
-1.4975879e-07 4.7507075e-07 -1.3504953e-07 1.3099759e-06 8.4424556e-07 2.1020392e-06 2.3411398e-07 9.287306e-08
-3.4050627e-06 -8.7262003e-07 -2.915634e-07 -6.80968e-07 5.360588e-06 -1.9792005e-06 5.7497476e-07 2.4325939e-06
-4.046494e-06 -5.125748e-06 -2.1715891e-06 7.3850356e-07 1.4139275e-06 3.6851952e-06 -4.0746704e-06 1.7419395e-06
-1.8598632e-06 -1.0699478e-07 -1.5199125e-06 1.9597262e-06 3.7028485e-06 2.1419646e-06 -2.6399057e-06 -2.0630919e-06
3.130525e-07 -9.847669e-07 2.949762e-07 -2.6465118e-06 -1.7392846e-06 -4.284814e-06 -4.8728623e-07 -2.0687712e-07
2.089317e-06 5.236857e-07 1.6121962e-07 4.228448e-07 -3.257363e-06 1.1994854e-06 -3.633514e-07 -1.4723139e-06
2.4406706e-06 3.1029172e-06 1.319864e-06 -4.5474317e-07 -8.310516e-07 -2.239316e-06 2.4600395e-06 -1.0458997e-06
1.12106e-06 6.110814e-08 9.2975887e-07 -1.1760671e-06 -2.2420365e-06 -1.2963565e-06 1.5898025e-06 1.2571132e-06
-1.8428155e-07 5.84964e-07 -1.6988511e-07 1.607671e-06 1.0460521e-06 2.6039354e-06 2.8411122e-07 1.164761e-07
-2.4520712e-06 -6.1934594e-07 -2.1083451e-07 -5.0264055e-07 3.8548933e-06 -1.4262719e-06 4.2687373e-07 1.7579802e-06
-2.9066882e-06 -3.670059e-06 -1.5625492e-06 5.277731e-07 1.0141986e-06 2.647585e-06 -2.9224036e-06 1.239758e-06
-1.3447388e-06 -7.907688e-08 -1.0878447e-06 1.4048776e-06 2.6482744e-06 1.5499455e-06 -1.8928374e-06 -1.4833777e-06
2.2146901e-07 -7.0187747e-07 1.999081e-07 -1.9123684e-06 -1.2409693e-06 -3.069625e-06 -3.4866798e-07 -1.4372674e-07
-1.3444441e-06 -3.400058e-07 -1.09171324e-07 -2.784224e-07 2.108354e-06 -7.788969e-07 2.356859e-07 9.614098e-07
-1.5867123e-06 -2.0047642e-06 -8.545988e-07 2.8740268e-07 5.535955e-07 1.4487177e-06 -1.5942138e-06 6.7101325e-07
-7.378548e-07 -4.6773778e-08 -5.960144e-07 7.667888e-07 1.4469055e-06 8.517709e-07 -1.0350227e-06 -8.1493914e-07
1.223813e-07 -3.8065897e-07 1.0748267e-07 -1.049423e-06 -6.772381e-07 -1.6797457e-06 -1.8897609e-07 -7.3878724e-08
-4.036265e-06 -1.020892e-06 -3.3221858e-07 -8.21167e-07 6.3286047e-06 -2.3362306e-06 6.992051e-07 2.87503e-06
-4.761257e-06 -6.0294287e-06 -2.5649426e-06 8.72132e-07 1.6505644e-06 4.348849e-06 -4.792428e-06 2.0343668e-06
-2.1979745e-06 -1.2658431e-07 -1.7945183e-06 2.2995282e-06 4.354012e-06 2.5362635e-06 -3.1019836e-06 -2.4391902e-06
3.6335706e-07 -1.1477308e-06 3.3160546e-07 -3.1338218e-06 -2.0378282e-06 -5.0493077e-06 -5.660874e-07 -2.3169486e-07
3.5346452e-06 8.9367944e-07 2.850812e-07 7.169087e-07 -5.5371183e-06 2.0438795e-06 -6.0904586e-07 -2.5134102e-06
4.161138e-06 5.2734513e-06 2.242511e-06 -7.6495655e-07 -1.4396181e-06 -3.8061983e-06 4.1911485e-06 -1.7795111e-06
1.920554e-06 1.0754223e-07 1.5723608e-06 -2.0110201e-06 -3.8100227e-06 -2.2153185e-06 2.7080457e-06 2.1339035e-06
-3.1638643e-07 1.0037049e-06 -2.923717e-07 2.7393028e-06 1.7814633e-06 4.4189665e-06 4.936523e-07 2.0152464e-07

exp_avg_sq f4 [64, 32]
00000000: 4d3e f42c 8ed0 a12c 2735 202d a921 8d2d
00000010: 2913 842d 4a0d 492d 320e 0b2d e192 e72d
00000020: 6e3f 152d 1093 992d 24b2 ab2c 2bd3 0b2d
00000030: 6cfb 992d 13d5 d02c e176 042d 5cd5 452e
00000040: 4b95 f92d abb0 672d 5634 b22c 1095 c12c
00000050: 3aa3 832d 5bb7 1e2e 556a c42c ec8d 182d
00000060: 82bc a02c 16cd 952c dd68 352d f09d d62d
00000070: cf72 0d2d d21c 4b2d 6e1a 872c bbf4 052d
00000080: 30f7 452e c105 0b2e 3bd7 812e 2d2f 042f
00000090: 8e45 ef2e 0c53 9e2e 297a 642e 945f 4b2f
000000a0: 867e 762e 60a6 132f f537 282e 8809 672e
000000b0: 10aa fe2e c377 302e cf6f 772e 9d9a ab2f
000000c0: 6e7c 542f faaa c82e 3ac2 1a2e 9ec3 262e
000000d0: 4423 ea2e 5561 822f c248 1b2e 00f7 7b2e
000000e0: 1aff 082e 3a69 132e 31e3 9b2e c965 382f
000000f0: 58fc 6c2e fb46 a42e cd57 ed2d 9e0f 5b2e
00000100: deb2 692f 6f50 242f a043 952f ed50 2530
00000110: 884e 1130 2585 b32f e954 842f cc00 7630
00000120: 2376 912f a214 4130 6822 582f 54db 852f
00000130: 1b25 1330 7330 542f 0ca0 a22f 296b cc30
00000140: 4c39 7a30 5c26 ef2f 00ba 382f 83d2 492f
00000150: 7948 0e30 014d 9730 09bc 312f df72 932f
00000160: 5976 202f 5906 3e2f 9916 b82f 1883 5b30
00000170: deb6 892f 2a92 bc2f c913 102f d425 7d2f
00000180: cf53 a62e 0230 672e 2865 d22e 4501 6f2f
00000190: 3aaa 502f 8357 fc2e 5b6a ba2e 3aba ae2f
000001a0: 3bcf cc2e 4002 8c2f a068 9b2e 9ee1 bc2e
000001b0: 34f0 4f2f d843 972e 4fb1 eb2e c17c 1130
000001c0: 5a54 b22f 3997 292f 9447 822e 47e5 8f2e
000001d0: 458e 4a2f 09ec d42f 6310 7c2e 8def d02e
000001e0: 9b3e 622e d145 8a2e 8d8a 012f 817e 9c2f
000001f0: 294d c12e 14ed 042f 8c11 4d2e c00a b52e
00000200: 5e91 db2e 4a87 992e 2f23 0e2f 7012 942f
00000210: b160 842f a291 2c2f bc85 fa2e 9256 e22f
00000220: 7257 082f e04d a92f 4af7 be2e 7f16 fd2e
00000230: 8618 8b2f 51b2 c42e 1bd5 0e2f 5251 3d30
00000240: fc4d e92f e8a3 5d2f b97d ab2e 89c4 b92e
00000250: 0049 822f caf8 0e30 b476 a92e 38de 0a2f
00000260: 8f59 962e bdbe a62e d0ed 2b2f 16a0 cb2f
00000270: 00d3 012f 69e2 332f a960 842e 4e12 ef2e
00000280: 7478 092e 4da9 bd2d a058 2d2e 568e c52e
00000290: 454a ac2e a19d 502e d2c8 192e ee36 102f
000002a0: 5b78 292e 4142 e82e 5e42 ff2d b171 1b2e
000002b0: 83e4 ab2e e358 f92d f36d 442e 6f9c 702f
000002c0: 025e 132f 5ce3 8b2e 0205 d62d db4c ee2d
000002d0: c111 a72e 243f 302f 6be2 d02d 381d 2c2e
000002e0: 6127 ba2d 192a e42d 87d9 552e 4364 012f
000002f0: de7f 1f2e 79c4 5a2e f476 a92d efd8 152e
00000300: 07ba 932f ccbd 4f2f ccf7 bf2f e454 4930
00000310: 772b 3430 8640 e82f ecdc a82f 3f91 9830
00000320: 665c b72f 21fc 6330 2396 812f 0147 ab2f
00000330: 2115 3c30 5a25 842f 1498 bf2f ce18 0031
00000340: 6d41 9e30 4b86 1630 2557 682f 567e 7a2f
00000350: d69c 3030 d665 c130 3846 652f 58e2 ba2f
00000360: fee7 4b2f d034 632f 139f e82f ac9b 8930
00000370: 81a9 af2f 1791 f22f 81db 322f e826 a22f
00000380: bf5a 712f 969c 292f 9574 9a2f e089 2b30
00000390: 3309 1730 1513 b92f e36a 882f 4730 7d30
000003a0: 1e34 952f aa71 4630 b257 5f2f 2c72 8a2f
000003b0: 3827 1830 e32a 5a2f 0aba a62f 4b71 d330
000003c0: c3da 8130 0cf9 f72f 72eb 3e2f 32e3 4f2f
000003d0: b012 1330 6060 9c30 8b80 382f bf1f 982f
000003e0: e309 262f a930 452f 5914 be2f 4e12 6330
000003f0: a21d 8e2f d3b0 c22f 51b3 142f 2ae1 832f
6.941814e-12 4.5990494e-12 9.106749e-12 1.6044792e-11 1.5015171e-11 1.1428478e-11 7.904387e-12 2.6326887e-11
8.483754e-12 1.7459395e-11 4.87989e-12 7.948124e-12 1.750574e-11 5.9353716e-12 7.529728e-12 4.4982115e-11
2.8374322e-11 1.3170058e-11 5.0648747e-12 5.501939e-12 1.4965463e-11 3.6087893e-11 5.5824603e-12 8.671713e-12
4.568402e-12 4.257604e-12 1.0311943e-11 2.4399122e-11 8.040415e-12 1.1545613e-11 3.839865e-12 7.614516e-12
4.501216e-11 3.161005e-11 5.9044734e-11 1.202209e-10 1.0880817e-10 7.19976e-11 5.1949698e-11 1.8496699e-10
5.60463e-11 1.342868e-10 3.8248477e-11 5.2531784e-11 1.1580792e-10 4.0124137e-11 5.6260604e-11 3.1214578e-10
1.9325494e-10 9.1253186e-11 3.5188054e-11 3.7917773e-11 1.06473524e-10 2.371602e-10 3.530754e-11 5.7290173e-11
3.1149396e-11 3.351739e-11 7.088941e-11 1.6770864e-10 5.3884314e-11 7.470465e-11 2.6982772e-11 4.9808706e-11
2.1254773e-10 1.4944289e-10 2.7150993e-10 6.014165e-10 5.286229e-10 3.2654515e-10 2.4070992e-10 8.949541e-10
2.6459288e-10 7.024231e-10 1.9657309e-10 2.43484e-10 5.353102e-10 1.92985e-10 2.9581348e-10 1.487341e-09
9.1030894e-10 4.3501103e-10 1.6800783e-10 1.8355632e-10 5.176229e-10 1.1008582e-09 1.616486e-10 2.6820765e-10
1.4593961e-10 1.7282654e-10 3.3485462e-10 7.985803e-10 2.505009e-10 3.4300857e-10 1.3103753e-10 2.3023655e-10
7.5636934e-11 5.256596e-11 9.567663e-11 2.1737374e-10 1.8977966e-10 1.14751784e-10 8.477193e-11 3.1782738e-10
9.3136575e-11 2.546745e-10 7.067169e-11 8.589328e-11 1.8911878e-10 6.8787365e-11 1.0718059e-10 5.292798e-10
3.2437947e-10 1.5424186e-10 5.9244304e-11 6.543615e-11 1.8422337e-10 3.8730288e-10 5.731272e-11 9.501298e-11
5.1442055e-11 6.287915e-11 1.1781705e-10 2.846612e-10 8.79033e-11 1.2089557e-10 4.6627188e-11 8.2328366e-11
9.9847894e-11 6.9816666e-11 1.2927324e-10 2.6934144e-10 2.4079364e-10 1.5695048e-10 1.139244e-10 4.1170672e-10
1.2400195e-10 3.0796254e-10 8.684127e-11 1.1509104e-10 2.5301378e-10 8.9447234e-11 1.2990535e-10 6.887336e-10
4.2437864e-10 2.0158064e-10 7.7985125e-11 8.4477376e-11 2.3698732e-10 5.201285e-10 7.706316e-11 1.2629975e-10
6.837119e-11 7.582688e-11 1.5636847e-10 3.7039233e-10 1.1807444e-10 1.6360392e-10 6.019835e-11 1.0871713e-10
3.1257177e-11 2.1561997e-11 3.941436e-11 8.983807e-11 7.8348474e-11 4.7433727e-11 3.4966537e-11 1.3116239e-10
3.853305e-11 1.05619076e-10 2.9019617e-11 3.5343898e-11 7.8167715e-11 2.8347496e-11 4.4662895e-11 2.1883449e-10
1.340297e-10 6.361375e-11 2.4331207e-11 2.7091598e-11 7.5974345e-11 1.6029539e-10 2.3747412e-11 3.9134224e-11
2.116324e-11 2.5939294e-11 4.8623796e-11 1.1768102e-10 3.6265983e-11 4.9741964e-11 1.9265901e-11 3.4071353e-11
2.6871325e-10 1.889397e-10 3.4918768e-10 7.324401e-10 6.5545386e-10 4.22464e-10 3.0715996e-10 1.1100737e-09
3.335316e-10 8.2940416e-10 2.3571642e-10 3.115517e-10 6.842403e-10 2.40372e-10 3.4850756e-10 1.8640551e-09
1.1514608e-09 5.4760524e-10 2.1131237e-10 2.2782251e-10 6.4251304e-10 1.4071542e-09 2.0852375e-10 3.399403e-10
1.8545163e-10 2.0664292e-10 4.2313583e-10 1.0012307e-09 3.1952754e-10 4.4122636e-10 1.6266989e-10 2.9495273e-10
2.1951062e-10 1.5426091e-10 2.8095273e-10 6.240537e-10 5.4946553e-10 3.3664863e-10 2.4814203e-10 9.210947e-10
2.7139974e-10 7.2193507e-10 2.0312887e-10 2.5183178e-10 5.535301e-10 1.9842221e-10 3.0327413e-10 1.538447e-09
9.448161e-10 4.5105997e-10 1.7364046e-10 1.8907256e-10 5.3504845e-10 1.1377885e-09 1.678037e-10 2.7671196e-10
1.5101125e-10 1.7934333e-10 3.4575257e-10 8.260813e-10 2.5850705e-10 3.5414036e-10 1.3524228e-10 2.398875e-10

exp_avg f4 [64]
00000000: d8ac 1234 5017 d134 c806 35b5 4427 ee34
00000010: 6974 0fb5 a584 a8b4 8fe7 69b5 b281 4d35
00000020: 2dcd 31b5 38c2 9334 4233 4d34 2685 a4b3
00000030: fd88 1db5 071c 57b4 ee00 2735 bffa e3b3
00000040: 5b92 7034 9824 a3b4 117c bfb3 7772 2d33
00000050: 7165 08b5 7296 4fb5 adb1 a6b4 bead b534
00000060: 8a70 31b4 f359 50b4 9f3d f734 d5d3 3ab5
00000070: 014c c0b4 1432 a9b4 ba00 32b5 4172 b932
00000080: 7be1 25b5 b35f 3db4 2d57 06b5 5575 1d35
00000090: 4517 2e35 6015 abb4 e06c 8bb4 9c9f 7935
000000a0: edf9 a133 cb52 7d34 23ff b7b4 27f0 3cb5
000000b0: 5bcf 27b5 222b 08b4 fae4 b9b4 dac4 7a35
000000c0: a871 17b4 fb66 90b4 82d7 efb4 eeb6 b7b4
000000d0: dc4d 64b5 2c70 e6b3 7dbe 65b4 9d56 3935
000000e0: 9893 1e35 3b88 0db5 cbe8 a7b4 3032 afb4
000000f0: 85f9 84b4 ee0e 1535 ed35 91b4 571f 9134
1.366019e-07 3.8946246e-07 -6.743762e-07 4.4359524e-07 -5.344105e-07 -3.138895e-07 -8.7136226e-07 7.655718e-07
-6.623621e-07 2.7522196e-07 1.911076e-07 -7.661065e-08 -5.86864e-07 -2.0033632e-07 6.22137e-07 -1.0616122e-07
2.2404986e-07 -3.038774e-07 -8.916698e-08 4.0383807e-08 -5.0811565e-07 -7.7332436e-07 -3.1049186e-07 3.384029e-07
-1.6525351e-07 -1.9404233e-07 4.605217e-07 -6.9598656e-07 -3.5818087e-07 -3.151514e-07 -6.6311225e-07 2.1588791e-08
-6.179541e-07 -1.7636812e-07 -5.004575e-07 5.86578e-07 6.485391e-07 -3.1866784e-07 -2.5969985e-07 9.299199e-07
7.542608e-08 2.3592581e-07 -3.4272043e-07 -7.0384925e-07 -6.251409e-07 -1.2681679e-07 -3.4625538e-07 9.3418714e-07
-1.4104319e-07 -2.6897018e-07 -4.4674022e-07 -3.4219505e-07 -8.504992e-07 -1.07306136e-07 -2.1396586e-07 6.904391e-07
5.9074364e-07 -5.2724835e-07 -3.1275553e-07 -3.2632806e-07 -2.4768465e-07 5.552855e-07 -2.704759e-07 2.7031157e-07

exp_avg_sq f4 [64]
00000000: 7d54 1530 ae0b 8431 1545 a032 351a e531
00000010: 99c7 1232 f79b 3d31 b16f c632 a8a4 a532
00000020: 73bd 6232 b687 0c31 6633 1631 1245 6b2e
00000030: 8bb4 3432 81a2 fc30 14e8 4732 0338 4330
00000040: 7c8a 9830 3a8b 3b31 b45c 6c2e e317 e42f
00000050: 3c2d f631 f063 9e32 3b9c 8431 5c12 4b31
00000060: 9207 d22f 7e62 5f30 60db 0832 6b17 8532
00000070: 2b78 8b31 3343 5531 0053 9332 dac8 082f
00000080: 447c 5032 4120 3930 1ab6 4032 ad02 2532
00000090: a7d9 7932 a0fd 5b31 5b36 1331 ae14 df32
000000a0: c870 2130 641f a830 15a2 a131 8de1 a432
000000b0: 2282 8232 566c 852f 72a7 b431 ec8d e732
000000c0: 9e3a a22f 3a0e 4631 5464 c831 34b4 6531
000000d0: 4710 b432 a472 0e30 9ea1 e930 da92 a632
000000e0: 2d80 3e32 ea36 1a32 b729 3c31 f68a 3d31
000000f0: a1a3 4d31 7575 6132 0e69 0231 a6ed 0331
5.432595e-10 3.8430334e-09 1.8657866e-08 6.6677566e-09 8.543702e-09 2.7591776e-09 2.3101025e-08 1.9283405e-08
1.3198007e-08 2.0449824e-09 2.185709e-09 5.349416e-11 1.051843e-08 1.83816e-09 1.1636093e-08 7.1020184e-10
1.1098815e-09 2.7291223e-09 5.3742524e-11 4.148993e-10 7.164685e-09 1.8439067e-08 3.859467e-09 2.9550824e-09
3.8204157e-10 8.1266893e-10 7.966122e-09 1.5493887e-08 4.059094e-09 3.1033778e-09 1.7150796e-08 1.2440485e-10
1.2135448e-08 6.7348443e-10 1.1217276e-08 9.6048725e-09 1.4543196e-08 3.2012863e-09 2.1422213e-09 2.597002e-08
5.873173e-10 1.223253e-09 4.7041433e-09 1.9194681e-08 1.519317e-08 2.4269536e-10 5.257726e-09 2.6956478e-08
2.9509278e-10 2.882088e-09 5.832172e-09 3.342632e-09 2.096216e-08 5.1822213e-10 1.6998916e-09 1.9391724e-08
1.1088599e-08 8.976466e-09 2.7381313e-09 2.758211e-09 2.9924438e-09 1.312343e-08 1.8977206e-09 1.9198096e-09

exp_avg f4 [1, 64]
00000000: ac62 35b7 da59 91b4 cbdf 94b6 e684 bcb7
00000010: d4f0 abb7 2750 6937 5240 0937 8a43 abb6
00000020: f8a9 ac35 f7e6 ebb6 23ff 8bb6 2d32 a837
00000030: 78b6 48b7 2dfb 8537 1da1 2db6 ee39 8e36
00000040: 48b8 6436 0566 3c37 3a50 08b7 a3fa 91b7
00000050: 36ca 43b7 78eb f834 5695 5536 d767 7136
00000060: 598e 9a36 5aa3 83b5 f376 a236 305c 61b4
00000070: 47a9 ac35 0c04 80b7 c8f8 70b6 dfb5 5437
00000080: 6993 b537 c157 8337 772b a1b6 1e26 01b6
00000090: a2db d3b6 82d5 2ab6 7a11 f936 99c2 4437
000000a0: c534 3937 10cb 1e37 c206 7a36 4999 fa36
000000b0: a737 98b6 49e2 ad37 200c f836 447e 0d37
000000c0: 238a 4537 7dd0 74b7 2b3a ba36 b517 9c37
000000d0: 553a 05b6 17a7 b2b5 459f b637 0fae 60b7
000000e0: 8b48 6236 7b43 c5b6 6b8a 8237 0afc d6b7
000000f0: 7532 5437 fd48 6e35 6daa 6bb6 b112 2037
-1.08114145e-05 -2.707373e-07 -4.4367966e-06 -2.2473232e-05 -2.0496933e-05 1.3906544e-05 8.180812e-06 -5.1040597e-06
1.2864466e-06 -7.0304336e-06 -4.1722246e-06 2.0050526e-05 -1.1963413e-05 1.5971798e-05 -2.587279e-06 4.2386737e-06
3.4081913e-06 1.12294265e-05 -8.124911e-06 -1.7402059e-05 -1.1669987e-05 4.6364926e-07 3.1826398e-06 3.5972241e-06
4.606129e-06 -9.807802e-07 4.8418237e-06 -2.0988296e-07 1.2864265e-06 -1.5260674e-05 -3.5907597e-06 1.267853e-05
2.1645525e-05 1.565728e-05 -4.803234e-06 -1.9244685e-06 -6.3138586e-06 -2.5456252e-06 7.422813e-06 1.1727819e-05
1.1039146e-05 9.464813e-06 3.7256837e-06 7.4684253e-06 -4.536432e-06 2.072858e-05 7.3923875e-06 8.433653e-06
1.17742775e-05 -1.4592076e-05 5.5500036e-06 1.8607689e-05 -1.9852498e-06 -1.3310663e-06 2.1770256e-05 -1.3391967e-05
3.371885e-06 -5.8789133e-06 1.5561664e-05 -2.5628153e-05 1.2647933e-05 8.876812e-07 -3.511693e-06 9.541095e-06
